PyTorch 60 Mins/Scripts/models/cifar_net_gpu.pth (torch_old, 249757 bytes, 10 tensors)

conv_layer_one.weight f4 [6, 3, 5, 5]
00000000: 813c 2dbc 4f4e c7bd 085d b83d 054b 1d3e
00000010: 2251 c43d 5906 2ebe 8f93 46be b515 09be
00000020: bcc5 84bd 8ca4 95bb 6b31 60be 0153 57be
00000030: 7b79 b1be 14c4 54be cc2f 19bd 5fde b0bd
00000040: db7a 21be 7e99 02be c990 bcbc 2547 d63d
00000050: 1606 113e f202 823d c884 eabd fa7f 49bd
00000060: 66f7 803d 6aef c3bd f235 0ebd 3850 35be
00000070: 1b39 c8bd f292 a8bd fca1 f23c 9582 6c3c
00000080: e96f 27bc ddd4 f23d 1f4d ecbc b138 ddbd
00000090: b5ba c2bc 66f8 243e c665 4a3e 09ca ca3d
000000a0: 0cfd c5bd 33ab e4bd 4447 b2bd 347e 0dbd
000000b0: 2a7f 07bc 1cab 5fbe 0c49 ffbd f5a4 39be
000000c0: 6d47 adbd e6cb a9bd 2f45 fdbc 74b4 e03d
000000d0: 5246 e13d 7a00 1d3e c9f5 523d 5c7e 453e
000000e0: 6a3e 933e c604 e53e c13d 443e f702 0d3e
000000f0: 8fdb 403e 87f4 913e 58f3 da3e cdf2 d23e
00000100: aa3d a13e fa24 e43d 0a6f 613e 8eed 573e
00000110: d003 4c3e d5e3 513e 3347 17bc 4a44 46bd
00000120: 76cf f73b 8049 643d ad59 323e 8f8a 65be
00000130: 3d57 fe39 d884 98bd ef17 53bd d335 5abd
00000140: 7f99 8bbe 706e fa3b 453e 553e f5c8 33bd
00000150: 04fe 57be bb1b febe 905a 36bf cba2 1bbf
00000160: c87d a7be e692 42be ed5c 423d 592f 46be
00000170: 618d b6be a136 0cbe 1e28 a83e c196 e13e
00000180: 58ab 113f 99b7 4a3f f9ad 023f c1d1 983e
00000190: 9114 0f3d cdd6 513e 0940 843e 5e06 3d3e
000001a0: 7845 223c 6254 923d 5409 073f 5301 b73e
000001b0: 52bc 973e b8c0 b23d ce8d b0be 455a e2be
000001c0: 30eb efbe 4d2b 95be a0e2 f6bd 208d 3dbc
000001d0: 0167 dbbd 024f e6be cf74 0dbe 8cca b33d
000001e0: 122f 8e3d 6e83 a53e 3d75 f43e c11b 4c3e
000001f0: ad9a 1cbc 9dfa 17be 4ee2 d93d db30 d73c
00000200: 2d84 05be 8cbd 08be e0d7 ed3d 2c87 0f3f
00000210: 087b bc3e 6273 893e 3b17 f53d 7b06 13be
00000220: 819e cdbe dc89 aabe 3ff6 c0bd 49f9 64bd
00000230: 5725 123e e528 32be 3742 d1be dbf3 05be
00000240: e6a8 113e 8122 4bbe fda4 003d 6b98 8a3e
00000250: 5e77 12bc 368e 713d 19fe 13be fc45 553e
00000260: 5559 d03e 2050 173f e6c4 be3e 9882 613e
00000270: 08b1 b03e 5439 c63e 9a9c 363e 154a 6dbd
00000280: 1f5f 913e 9082 f13d 74ed afbe 66cc 1fbf
00000290: 7a5b d7be 8c4a 533e a88f a2be d86f b9be
000002a0: b8bd d3bd f38b 39bd 9e7d 9abd 3f14 b9be
000002b0: a702 5abd 21a5 85bc aee7 8fbe 5e65 99be
000002c0: 518c 8a3d 448b a03e 5a83 d03e 1dc3 6d3e
000002d0: cc69 983d db19 923e 28e4 a03e f14d c0bd
000002e0: 3d9e 50be d84d 553e d4eb 863d fb24 0bbf
000002f0: d1b7 12bf 9ea7 febe d911 2d3e b4e4 89be
00000300: 9bca 87be 4d31 f2bc d717 793c 18e7 e0bb
00000310: 8036 4fbe 8a56 e9bc a92e 293e 5938 4c3d
00000320: 269f 01bf c2c0 e9bd 7145 3c3d a439 473e
00000330: ebe0 593e fdb9 a4bc 5fce b03e 3069 773e
00000340: 9ed5 02bd 8c65 0bbe 76bd a53e f93f 2b3c
00000350: c485 96be 3e46 8bbe a5a1 ffbd cf97 793e
00000360: ab5a 0bbe bbb8 b2bd a4de b33d 7385 c13e
00000370: fcdf a6bd 4e2e 8cbd 214c 973e 98dc cc3e
00000380: cab3 283e 1fc6 393e a78b 5b3e d7d8 d13e
00000390: a514 943e a9ca 9a3e 527d 8e3e b789 9c3e
000003a0: 9d1e e13e 8cde f53e e0df d83e 763b 8f3d
000003b0: 6f85 1f3e dad9 9e3e 4248 473e b85f 0b3e
000003c0: 8bf1 18bd 32db 66bd fdef 51bd f686 10be
000003d0: 790c 39bd e8ca a0be 28c0 25be f15f b0be
000003e0: 6ce9 d5be 78c6 41be 5a73 abbe 61bf 63be
000003f0: a693 8abe 6cef 41be 6d05 01be 875f b1be
-0.010573507 -0.09731733 0.09002119 0.15360649 0.09585787 -0.16994609 -0.19392227 -0.13387187
-0.06483027 -0.0045667347 -0.21893851 -0.21027757 -0.34662995 -0.20777923 -0.0373991 -0.08636164
-0.15769522 -0.12753865 -0.023018258 0.104627885 0.14162478 0.06348218 -0.11451107 -0.049194314
0.062971875 -0.09567149 -0.034719415 -0.17706382 -0.09776517 -0.082311526 0.029618256 0.01443543
-0.010219553 0.11857007 -0.028845368 -0.10801829 -0.02377067 0.16110381 0.19765386 0.099018164
-0.096674055 -0.11165466 -0.08704999 -0.034544185 -0.008270064 -0.21842617 -0.124651045 -0.18129332
-0.08460889 -0.08290844 -0.030916778 0.10971919 0.10999741 0.15332213 0.05150393 0.19286484
0.28758556 0.44730204 0.19164182 0.13770662 0.18833755 0.28506872 0.42763782 0.41200867
0.31492358 0.11139865 0.22015014 0.21086714 0.1992333 0.20497067 -0.009233284 -0.04840497
0.007562573 0.055734158 0.17417021 -0.22416137 0.00048511653 -0.07447213 -0.051536497 -0.053273987
-0.27265546 0.0076425597 0.20824535 -0.04389282 -0.21092993 -0.49630532 -0.7123194 -0.6079528
-0.3271315 -0.1900135 0.047451902 -0.19353999 -0.3565474 -0.13692714 0.32843107 0.4406033
0.56902075 0.791864 0.5104671 0.2984753 0.034931723 0.20492096 0.25830105 0.1845946
0.009904258 0.07145001 0.5274861 0.35743198 0.29635864 0.087281644 -0.34483188 -0.44209495
-0.4685912 -0.29134598 -0.12054944 -0.011569291 -0.10713006 -0.44982153 -0.1381409 0.08778867
0.06942572 0.32326835 0.47745696 0.19932462 -0.009558362 -0.14841695 0.10638867 0.026268413
-0.13038702 -0.13353556 0.116134405 0.5606563 0.36812615 0.26845843 0.119673215 -0.14357941
-0.4015999 -0.33308303 -0.09421968 -0.0559018 0.14272057 -0.17398413 -0.4087083 -0.13081305
0.14224586 -0.19837381 0.031407345 0.2706941 -0.008939592 0.058973514 -0.144524 0.20827478
0.40693155 0.59106636 0.37259597 0.22022474 0.34510064 0.38715613 0.17833176 -0.05793198
0.28392884 0.11792481 -0.3436085 -0.6242126 -0.4206198 0.20633906 -0.31750226 -0.36218143
-0.1033892 -0.04529948 -0.07543491 -0.3614826 -0.053225186 -0.016314091 -0.28106445 -0.2996015
0.067650445 0.3135625 0.40725213 0.23218961 0.07442054 0.2853535 0.3142407 -0.09389866
-0.20372863 0.20830476 0.065879494 -0.543533 -0.5731173 -0.49737257 0.1690134 -0.269323
-0.26521763 -0.029564524 0.015203438 -0.006863486 -0.20235634 -0.028483648 0.16521706 0.049858425
-0.50633466 -0.11413719 0.045964662 0.19455582 0.21277206 -0.020108217 0.3453245 0.2416122
-0.031942002 -0.13612956 0.3237111 0.010452264 -0.2939893 -0.27202028 -0.12482003 0.24374317
-0.13608806 -0.08726641 0.087827 0.37797126 -0.081481904 -0.068447694 0.2955027 0.4001205
0.16474834 0.18141983 0.21439992 0.40985748 0.28922 0.30232742 0.27829987 0.30573818
0.4396867 0.48021352 0.42358303 0.06993763 0.15578245 0.31025583 0.19461158 0.13610733
-0.03733973 -0.056361385 -0.05125426 -0.14113984 -0.04517791 -0.31404805 -0.16186583 -0.34448197
-0.4177965 -0.18923366 -0.33486444 -0.22240974 -0.27065772 -0.18938988 -0.12599726 -0.34643194

conv_layer_one.bias f4 [6]
00000000: 0783 0c3f b8f6 5abe 6173 0dbf 4f0a 0cbf
00000010: da5e 85be 500d dabe
0.5488743 -0.21383178 -0.5525418 -0.5470323 -0.26048928 -0.42588282

conv_layer_two.weight f4 [16, 6, 5, 5]
00000000: ed84 a03c f5f2 1c3d f4a4 8bbd 2a5f 88bc
00000010: 70cd 6ebc f6f6 033e fe4f b93d e4d4 bc3d
00000020: 5fb3 e53c 639d d83b 4fad 30bd d2b7 73bc
00000030: 364c 81bd 0ae3 e03c 7ea2 9b3d 7dd6 66bd
00000040: 44c9 91bd 79f6 cbbb e46e b73d 6191 123e
00000050: 5c4a 15be a352 8dbd 2e9b 38bd 1ab3 49bd
00000060: 505d eb3d 3704 abbd 92fa 09bd 7992 913c
00000070: 0698 26bd e6f4 98bd 8ef9 d1bd 97f6 b4bc
00000080: c492 143d 56db 553d 16d1 47bb 5232 44bd
00000090: 6d08 213c c821 92bc 3a49 31bd f232 ec3c
000000a0: 6626 5ebe f591 e1bd 0da6 f4bd 28c7 8a3d
000000b0: ed85 08bb 735c 0fbe d188 81bd 511c 13be
000000c0: 82ad 233b c281 65ba df86 1b3d 4f82 de3d
000000d0: 5d5c 2e3e 5855 be3d 2c26 a13e 3709 95bc
000000e0: 576d ee3d cee2 0b3e b340 623e e018 dd3d
000000f0: 1a01 8b3e 94b8 813e b1f6 db3d b3ad bfbd
00000100: 120d abbd 7dc0 0e3d bc7e c03d 0944 493e
00000110: 4dc6 5b3e ea29 e93d 957b 683e e86a fd3d
00000120: 1c67 16bc 6c28 b4bc d8f7 33be ff09 ffbc
00000130: 2adb 93bd 0d3b a9bd 9924 e83d 5d00 293e
00000140: 39b0 e93d a7d8 dc3d edca 813e 13d1 843e
00000150: 55b2 b93d 7cc0 0f3e 4b2a 023e 5990 6b3e
00000160: 24d0 553e 5275 373d d860 92bd 9008 313d
00000170: 4d5d ba3d fc09 0e3e f482 bb3c cd75 9cbd
00000180: 0c55 f1bc 423a 503d 7fba e2bc 57f2 04be
00000190: 55a1 14bc 4a53 03be d09d 43be 266f debd
000001a0: 8c4b 9d3c ea77 8abe 18e1 87be de04 68be
000001b0: c6a3 073c f168 d43d d869 7cbd 3f07 c9bd
000001c0: 1995 e0bd 340e dcbc 61be 733d fef4 683d
000001d0: a585 c3bc 3da2 5abe 60e9 19be 3797 523c
000001e0: 38e8 fe3d 7148 78bd 263d 95bd 4528 bfbd
000001f0: bd15 8c3c 62ae 0dbe e038 59be 5e87 88be
00000200: 6d23 51be 6e78 14be 26c1 f23d 48ac 683d
00000210: 34de 3c3d add5 e9bc 14f4 13be 9a08 3b3e
00000220: b973 75bc 69a8 983d 9f7c 3a3c f81a edbd
00000230: 53a0 383e 2972 c73c 989c 943b 87e2 a3bd
00000240: 3754 6cbe 4fbc 163e b332 8a3d daff 86bd
00000250: ad1b 633c 9e84 09be baaf 143f e403 483e
00000260: 9068 26be 4a3a ddbe e18e c1be efa5 ef3e
00000270: 20bc 1e3e 8f46 56be cf72 f2be 5f75 06bf
00000280: 61d6 103f 9b04 893e 3830 05be 65e4 ecbe
00000290: d88f 0abf 8d2a cc3e 2a6e 163e 98bc 14bd
000002a0: 8887 69be 7a1f aabe 1ecc f33e b10d 4a3e
000002b0: 196f de3d ff2e cebd 89f8 1bbe bf6b 3a3d
000002c0: 093e 1dbe 0826 18be 8003 8abc 7fbb d8bc
000002d0: aa63 2bbe 59e4 5ebe 083c 8abe 65c7 20be
000002e0: d86d 00bd 44f1 3bbe 1199 52bd eaa1 19be
000002f0: 6d2f fcbd 44b5 36b7 a759 643d 58d2 a3bd
00000300: 18ca 26bb bad9 b6bd 5e4e 23bd cf0e 1f3e
00000310: 5b82 003e 81ee b5bc 2e5c 333c cbb4 8e3b
00000320: 699a f3bd 09b0 723d 1be8 a43d 19f0 003e
00000330: 0aa3 133e 495d 393d 633b 74bb 5d72 4dbd
00000340: a4bd 813b c307 6cbd 0484 c93d e1ba 8d3d
00000350: 3e97 b9bc f789 a93c 422a b1bd f61a b63d
00000360: b536 e83b b6de 90bd f573 90bd ac52 81bc
00000370: 106a 053d 4188 69bd 305e e43c 57ed 91bd
00000380: 9be2 b3bc b649 383e f77b e23d a8f0 f6bc
00000390: bafd 5dbd 74f7 92bd 4ca4 25bd b8fb e8bd
000003a0: d859 853c c60f 88bd 38b0 61bd b067 7dbc
000003b0: 0a97 9dbd 07ee b9bd ddf6 b2bd 48f6 18bd
000003c0: e1d8 babd f8d4 a6bc a8bb 7fbd e9c8 593d
000003d0: 595b 8b3d c6b4 373e 2134 363e af18 be3d
000003e0: ec5d 183e f4bf 633e 3b4c 323d f2c7 bebc
000003f0: 125a 83bd bf83 cbbd df99 20be 57f2 f13d
0.019594634 0.03831764 -0.06818572 -0.01664694 -0.014575347 0.12887177 0.090484604 0.09220293
0.028039632 0.006610559 -0.04313403 -0.014875369 -0.06313364 0.02745201 0.07599352 -0.056356896
-0.071184665 -0.00622445 0.089566976 0.1431327 -0.14579147 -0.06900527 -0.045069866 -0.04924307
0.11492407 -0.08350413 -0.033686228 0.017770039 -0.040672325 -0.07468586 -0.10252677 -0.02209024
0.03627278 0.05221113 -0.0030489615 -0.04789955 0.009828669 -0.017838374 -0.043282725 0.028832886
-0.21694335 -0.11014167 -0.11945734 0.06776267 -0.002083178 -0.1400011 -0.06324924 -0.1436627
0.0024975245 -0.0008754992 0.03797042 0.10864698 0.17027421 0.09293622 0.31474435 -0.01819287
0.11641949 0.13660738 0.22094993 0.1079576 0.27149278 0.25336134 0.10740412 -0.09359302
-0.08352102 0.03485154 0.09399173 0.1965486 0.21462364 0.113849476 0.22703393 0.123739064
-0.009179857 -0.02199193 -0.17575014 -0.031132696 -0.072195366 -0.08263216 0.113351054 0.16504045
0.11410565 0.10783511 0.25350133 0.2594076 0.09067217 0.1403827 0.12711446 0.23004283
0.2088018 0.04478962 -0.07147378 0.043221056 0.09099827 0.13870996 0.022889592 -0.07639656
-0.029459499 0.05083681 -0.027676819 -0.1298307 -0.009071668 -0.12824741 -0.1910317 -0.10861044
0.019201063 -0.27044612 -0.2653892 -0.22658107 0.008278793 0.103715785 -0.061624378 -0.09815835
-0.10965938 -0.026862241 0.05950773 0.056874268 -0.023867438 -0.21350951 -0.15030432 0.012853435
0.12446636 -0.06061596 -0.07287054 -0.09333853 0.01710021 -0.13836053 -0.21213102 -0.26665777
-0.2042367 -0.14499065 0.118532464 0.056804925 0.046110347 -0.028544271 -0.14448577 0.18265
-0.014981204 0.07453997 0.011382251 -0.115774095 0.18029909 0.024346428 0.004535269 -0.08002191
-0.23079 0.14720272 0.06747951 -0.065917686 0.013861579 -0.13429496 0.5808064 0.19532734
-0.16250825 -0.43208534 -0.3780432 0.46806285 0.15501451 -0.20925353 -0.47353217 -0.52522844
0.56577116 0.26761326 -0.13006675 -0.46268 -0.5412574 0.39876214 0.14690462 -0.03631267
-0.22805607 -0.3322714 0.47616667 0.19731785 0.10861034 -0.100675575 -0.15231527 0.04551291
-0.15355696 -0.14858258 -0.016847372 -0.026456593 -0.16737238 -0.21766795 -0.26998925 -0.15701063
-0.031354755 -0.18353754 -0.051415507 -0.15003172 -0.12313733 -1.08902495e-05 0.05574956 -0.07999104
-0.0025450047 -0.08928247 -0.03986966 0.15532993 0.12549727 -0.022208454 0.01094727 0.0043550483
-0.11894686 0.05924991 0.08052083 0.1259159 0.14417663 0.04525498 -0.0037266843 -0.050157893
0.0039593745 -0.05762459 0.09839633 0.0692041 -0.022655126 0.02069567 -0.08650638 0.08891861
0.0070865997 -0.07073729 -0.07053367 -0.015786491 0.032571852 -0.057014707 0.027876943 -0.07125347
-0.02195864 0.17996868 0.11058801 -0.03014405 -0.05419705 -0.07176104 -0.04043989 -0.113761365
0.016278192 -0.066436335 -0.055099696 -0.015466616 -0.07694824 -0.09078603 -0.08738492 -0.037344247
-0.091233976 -0.020365223 -0.062434822 0.05317012 0.068045326 0.17940053 0.17793323 0.09282052
0.14879578 0.22241193 0.04352973 -0.0232887 -0.06413664 -0.09937238 -0.15683697 0.11813801

conv_layer_two.bias f4 [16]
00000000: 17ce 70bc 284e 203d da39 36bf c5d9 17bf
00000010: d68b ebbe acf4 5cbe 62c2 793f f657 bd3e
00000020: dc7e ae3f eedc 33be 395e d63e d620 18be
00000030: 840a 3d3f bf83 0b3f e2e7 9abf c542 49bf
-0.014697573 0.039137036 -0.71182024 -0.59316665 -0.46005124 -0.2157771 0.9756223 0.3698117
1.3632464 -0.17564747 0.4186876 -0.14856276 0.7384417 0.54497904 -1.2102015 -0.7861751

fc_one.weight f4 [120, 400]
00000000: d20f 56ba 4882 91bc 1c27 873c f7cf 023d
00000010: 4c3a 313c e3f0 4cbd 6d90 58bd 79de 53bd
00000020: 67ae 593c 8ded 5f3c 88d6 0ebc 8e73 5d3c
00000030: 8acf 50bd 0106 b7bc 00d5 35bd 7573 3cbd
00000040: f237 a13c 7c35 6d3c 663e 8dbd 88b7 d83c
00000050: f935 c4bb 2187 adbc 32b1 fdbc 3a80 0c3d
00000060: 4439 293d a598 143d 90b5 1b3d 014d 05bd
00000070: 8b2b fd3c 65f2 193c 95c2 07bd 5d73 683d
00000080: b057 2fbd 0510 2abd c498 76bc 39bf 8a3a
00000090: f977 3ebd 80fc 03bd a8b9 7f3c 09e8 71bc
000000a0: 2707 33bd 1885 173d ae4d 1d3d 8340 fb37
000000b0: 1ad5 2cbc ca48 83bc 2b84 213d 35b3 32bc
000000c0: 0319 8cbc 5d05 9d3c eb0c aabb 639c 10bd
000000d0: 5b0e b23c d961 4bbd 3226 0c3d 5973 603b
000000e0: b740 08bd d8c2 6abc a097 053d f234 fb3b
000000f0: 2e7a 103d e2b2 1ebd 7a41 ad3b 15e8 8c3c
00000100: 3dbb 02bd 3cb4 a43c eb49 3bbc 84b5 6dbd
00000110: 48f8 80bd 2b57 b7bb c24f 9bbc c373 20bd
00000120: 3d73 49bd 709a 69bc 27f4 7abc f048 05bd
00000130: 7946 b93c ae20 3bbd dcab 62bc c7d8 0e3d
00000140: 4833 7e3c 2752 e83b 4417 c63b 1aa3 0bbd
00000150: 27bc 213d 0c7f 29bd 5b36 e1bb d0af cfbc
00000160: c784 f83b ac3f 97bc 9cd5 463d 4aaa f0bc
00000170: e785 a6bb 0fb7 1ebd c3b5 0ebc 044c 5e3d
00000180: af07 e7bc a03a 58bd 2650 da3c 8370 f83c
00000190: f071 72bc c9da 243c 8019 1dbc dc58 dc3c
000001a0: 892c 7a3c b7db 3abd 15a7 f3bb 9845 1abd
000001b0: 673e d8ba 33b2 963b c64b 9e3c 1e20 443a
000001c0: 10ba 43bd 5a25 9e3c 277b 30bc 340a 91bc
000001d0: 6658 243c 7cd7 cf3c 1d5d 10bd 55b1 dc3c
000001e0: 5986 133d 28b6 b03c 661e 043d 65f3 9d3c
000001f0: cf4f 0e3d 2bc9 1c3c ec72 4a3d 1756 a6bc
00000200: 48ce 5a3d a8f4 683d 4f84 2fbd 4b58 2cbd
00000210: 7309 32bd a997 d23c 7104 383c 812c 093b
00000220: e3f6 29bd 36e2 debc 16bd b4bb 0720 cdbc
00000230: 19c8 cf3c 0d35 5cbd 544f a33c 4eaf e7bc
00000240: ffa2 9f3c 533d 5bbd 25a8 5ebd dd67 19bc
00000250: 249b 0c3d 3081 9cba 94b2 be3c 67fa ca3a
00000260: a3f9 22bc cd8e 113c dc79 03bd 7731 2dbd
00000270: 0971 763c b95f 3cbd d2bd 9f3c 00c9 48bd
00000280: f77f 3d3c 1feb f4bc 3e81 94bc fed3 3bbc
00000290: 77a6 1fbd fbf9 0c3d 0ac5 3bbc bc1f 0d3c
000002a0: 5b43 b9ba 8181 80bd 04ed bb3c 58cf 40bd
000002b0: 72dd 39bd 6e26 3c3b 563a 8cbd d1ad 66bd
000002c0: 3e23 ce3c 741e 263d b0aa 383c 05c0 e93c
000002d0: f3da 1e3c aeeb 46bc 0e99 13bd 7d68 a7bc
000002e0: 9934 a3bc f691 3c3c 5b80 16bc 46fe 7a3c
000002f0: 25ca 58bc 3612 48bd a97c 9cbc 3452 ebba
00000300: 37d4 71bd 9478 33bd 98c0 af3c c9d5 25bd
00000310: f29a cd3c c1a4 31bd 9f16 1fbd c2f8 2abd
00000320: 8d3f 27bc 0f99 9fba f0d5 70bc 5457 3e3c
00000330: 6814 2cbd 780e 6d3c d9e9 89bb 10c5 78bc
00000340: 2df5 29bd 2eff c73c c062 20bd 2017 4fbd
00000350: b800 eabb 77fe 6a3c f3f4 18bd 0a7d 56bc
00000360: 8f1f d539 7c08 d33c 64ad e8ba 87d7 1bbc
00000370: 7a71 fc3b 007c 82bc a352 3a3b e5a0 84bd
00000380: 6fab 24bd ffdc 403c 02db 09bd a4e6 083d
00000390: f604 01bd c553 c73a 13c8 0b3d 0437 cebc
000003a0: 0e53 343d d325 dc3c d471 1a3b 485c db3c
000003b0: 76f3 f2bb 2a2a 7e3b 17a5 03bc e3cf 0e3d
000003c0: 4c71 0fbd b42e f13c 3522 26bd c1e9 ee3c
000003d0: cdbe ac3c d16a 19bd 5758 18bd d91a 40bc
000003e0: 3a97 883c 89e8 13bd 6bf9 30bc ef47 d5bc
000003f0: bb7f 7fbd 495c 33bc a9c0 a33c 3b66 32bd
-0.00081658096 -0.017762318 0.016498141 0.031936612 0.010817122 -0.050034415 -0.05287211 -0.05172584
0.01328621 0.013667476 -0.00871814 0.01351632 -0.050979175 -0.02234173 -0.044392586 -0.046008546
0.019679997 0.014478084 -0.06896667 0.026454702 -0.0059878794 -0.021182599 -0.030968282 0.034301974
0.04131438 0.036278386 0.03801495 -0.03254414 0.030904552 0.00939617 -0.033144552 0.056750644
-0.042808235 -0.041519184 -0.015051071 0.0010585553 -0.046501134 -0.032223225 0.015608229 -0.014764794
-0.043707993 0.036992162 0.03840416 2.9951572e-05 -0.010548854 -0.01602592 0.039432686 -0.010906984
-0.01710177 0.019167596 -0.005189528 -0.035305392 0.02173536 -0.04965386 0.034216113 0.003424844
-0.033264842 -0.014328681 0.032615304 0.0076662237 0.03527277 -0.038744815 0.0052873464 0.01720051
-0.031916846 0.020105474 -0.011431198 -0.058034435 -0.06297356 -0.005595108 -0.01895893 -0.0391729
-0.049182165 -0.014258012 -0.0153169995 -0.03254026 0.022616612 -0.045685463 -0.01383492 0.034874704
0.015515156 0.0070898714 0.006045254 -0.034091093 0.039486077 -0.041380927 -0.0068729348 -0.025352389
0.0075841877 -0.018462978 0.048543558 -0.029378075 -0.0050818804 -0.038748797 -0.008710328 0.054271713
-0.028201906 -0.052790284 0.026649546 0.030327087 -0.014797673 0.010061928 -0.009588599 0.02689784
0.015269407 -0.045619693 -0.007435689 -0.037664026 -0.001649809 0.0045988797 0.019323241 0.00074815925
-0.047784865 0.01930492 -0.010771549 -0.01770506 0.010030841 0.025371306 -0.03524505 0.026940027
0.036016796 0.021571234 0.032255553 0.019281099 0.03474408 0.009569447 0.049426004 -0.020304723
0.05341938 0.056873947 -0.04285079 -0.04207639 -0.043466043 0.025707083 0.011231528 0.0020931067
-0.041495215 -0.027207475 -0.005515705 -0.025039686 0.025363969 -0.05376153 0.019935288 -0.028281834
0.019486902 -0.05352528 -0.054359574 -0.009363142 0.03432764 -0.0011940356 0.023278512 0.0015486003
-0.009947213 0.008884144 -0.032098636 -0.0422835 0.015041598 -0.045989726 0.019499693 -0.049019814
0.011566154 -0.02989727 -0.018128034 -0.011464117 -0.038977113 0.034418087 -0.011460552 0.008613523
-0.0014134453 -0.06274701 0.022940166 -0.04707274 -0.045377202 0.002870943 -0.06847064 -0.056318108
0.02516329 0.040556386 0.011271164 0.028533945 0.009695756 -0.012141151 -0.036034636 -0.020435566
-0.019922541 0.011509409 -0.009185876 0.015319413 -0.013231789 -0.048845492 -0.019102411 -0.0017953576
-0.059040274 -0.043816164 0.02145414 -0.040487085 0.025098298 -0.043370012 -0.038839933 -0.04174114
-0.010208023 -0.0012176352 -0.014699444 0.0116175 -0.04201165 0.014468782 -0.004208785 -0.015183702
-0.041493583 0.024413671 -0.039156675 -0.050559163 -0.007141199 0.014342896 -0.037342977 -0.013091335
0.0004065004 0.025760882 -0.001775187 -0.009511835 0.007703957 -0.015928268 0.0028430603 -0.06476001
-0.040202554 0.01177144 -0.033656128 0.03342308 -0.03149887 0.001520746 0.034126353 -0.025172718
0.04402452 0.026873505 0.0023566382 0.026777402 -0.0074142767 0.0038782456 -0.008034966 0.034866225
-0.035020158 0.029441215 -0.040559966 0.029164197 0.021087075 -0.037455384 -0.037193622 -0.011725151
0.016673673 -0.036110435 -0.010801653 -0.026035277 -0.062377673 -0.010947295 0.019989328 -0.043554526

fc_one.bias f4 [120]
00000000: 7df6 603d 41db 863c 70f1 1bbe de63 8a3d
00000010: ee0c 223d 50f6 813c 1bf0 9e3d d66a 9abc
00000020: fd39 b8bb 0572 913e da4b ca3d a7d4 8bbd
00000030: 4aea 2abc 24e7 a03c 85a1 9bbd e6e9 a93d
00000040: f57e 973b b34b 133e 16bf 413e f16c 923e
00000050: adae 573e 65e9 a9bd e512 84bc 5f7a 853d
00000060: 9c65 ecbc ad5b 54bd 1297 89bd 552d c4bd
00000070: ffc9 1a3c 74f0 02bd 082e 1b3e af9a 2139
00000080: d304 d73d 187e 9e3e 5472 143e f499 c638
00000090: 0982 09bd 7728 62be ceb3 1c3d 9d98 10be
000000a0: f97b f23c f5ab 27bd 4a94 573e 5baa 783c
000000b0: 3927 3f3d f43b 76bd 9f9e b93d 07b9 323d
000000c0: e7d7 883c b75d 9a3d 7b10 4d3d 4186 8a3d
000000d0: 146a 99bd e4f0 92bd 9b6b 8a3e f5fc 88be
000000e0: d54b 213d f24b 25bd d5a2 3e3d 59a3 213d
000000f0: 13a9 363d 3cd0 063e ee44 32be df9c 3d3c
00000100: a6d1 443e 50a2 ffbd 61e1 0e3e bb82 65be
00000110: 2723 013e f40d 093e 2a80 fd3b 5f55 ddbd
00000120: 202e 5f3d 9149 ddbd a4de 78bd ec09 81bc
00000130: 2a78 2e3e 9294 d63d 962b 8f3d 9cd1 253d
00000140: 6341 a13c 4cf8 533d 8d0a a7bc 61dd 5fbd
00000150: 3cef 823d 7674 283c b376 333d 8d9a 9b3c
00000160: 7c9a e9bb b083 d43d f909 003e 7a48 c23d
00000170: 01aa 313e f998 e1bb cb44 4b3c a5b7 2abd
00000180: 92ae 0e3e 2f2e 933d 352d 5abe 5707 a13e
00000190: 2e0a e9bd 3250 9a3c 8aed 87bc 4d0e f63c
000001a0: 8b7f a13d 39c0 363b c6ba 073d 11cf 2c3e
000001b0: 29c7 06bc 42a7 2fbe 7bdf 8e3d 797c 97bd
000001c0: c1bc 3cbc 24c0 debd 0e40 3bbd 77af 233d
000001d0: 3fe4 c0bc 6fac 20bd a8b4 263e a7be 10bd
0.05492257 0.01646197 -0.1522882 0.067573294 0.039563112 0.015864521 0.0776064 -0.018849771
-0.005622147 0.28407302 0.09877749 -0.068276696 -0.010431835 0.019641466 -0.07599167 0.08296566
0.0046232888 0.14384346 0.1892055 0.2859874 0.21062727 -0.082964696 -0.01612229 0.06517481
-0.028857045 -0.05184524 -0.067182675 -0.09578959 0.009447574 -0.031967595 0.15154278 0.0001541178
0.10498967 0.30955577 0.14496738 9.470052e-05 -0.033571277 -0.22085749 0.038257413 -0.14120717
0.02960013 -0.040935475 0.21052662 0.015177335 0.046668265 -0.06011577 0.09063458 0.043633487
0.016704513 0.07537406 0.050064545 0.06763888 -0.07490936 -0.071748525 0.2703522 -0.2675549
0.03937896 -0.04035563 0.046542007 0.03946242 0.044594835 0.13165373 -0.17409107 0.0115730455
0.192206 -0.124821305 0.13953163 -0.22413151 0.12611066 0.13384229 0.0077362256 -0.10807299
0.054487348 -0.10805047 -0.0607592 -0.015751801 0.17038026 0.10477556 0.06990735 0.040483102
0.0196845 0.051750466 -0.020390773 -0.054654483 0.063932866 0.010281673 0.043814372 0.018994594
-0.0071290117 0.1037668 0.12503804 0.0948648 0.17350008 -0.006884691 0.012406538 -0.041679043
0.13933781 0.07186543 -0.21306308 0.31450912 -0.11378895 0.018837068 -0.01659276 0.030036116
0.07885655 0.002788557 0.033137105 0.16875865 -0.008226194 -0.17153648 0.06976219 -0.07396788
-0.011519612 -0.10876492 -0.045715384 0.03996226 -0.023546336 -0.039226945 0.16279852 -0.03533807

fc_two.weight f4 [84, 120]
00000000: b346 bf3c 4122 d33d 08cf 1bbe bd28 afbd
00000010: c4b0 aabd 9707 893d 2157 46be 1010 cdbd
00000020: 42c0 f2bd da8f 813d 00b9 28bd 9bec c2bd
00000030: 99e7 923c 053a 48bc d61c ab3b 2c78 c43d
00000040: 99d2 dabc c6ba 243e 11f1 16be b796 9d3d
00000050: 1264 43bd dcf6 ea3d 7790 62be 2ea9 c3bc
00000060: 31c4 ec3d 8d68 e8bd fb89 60bd 39a8 3b3e
00000070: 3368 c63d 1ce2 3e3d 83f3 e13d 27d8 873c
00000080: b9c6 c73d 69b2 33bd efdb 363d 8f77 653c
00000090: e388 53bd 7796 983d 1afb ca3c 8846 d33b
000000a0: fbae f03d 1cc4 d4bc 2288 87bd ff1f 03be
000000b0: 9388 e9bd 0dc7 b63d 2fd4 113d d4ad f6bc
000000c0: f786 e53d 4621 f13d 17ba 32bd a738 2c3d
000000d0: ca9a ebbd 42ca 293c e616 6b3d b68a a3bd
000000e0: 4cd1 663c 3dcd 2b3d 7790 6ebd 16d1 47be
000000f0: d062 18bd 4688 bdbd 0240 26bd 232d 1e3c
00000100: 28fd aabd f80c 0dbe a499 b73c b016 573d
00000110: 76b4 d3bd 76ac 0a3e e327 8bbd e85d b6bd
00000120: b729 7d3d 8b90 a9bd 187a 213e ebd9 39bd
00000130: c402 4fbe 3d21 ea3d 3988 c1bd 61a1 3b3c
00000140: f041 2d3d 2bdb 0f3e 1b77 c6bb 0cc9 30bc
00000150: c508 01be b725 c53b 8241 063e 9466 49bd
00000160: d24b 513c e13e 85bb b30f d0bd 3049 1bbd
00000170: 1ac3 6cbd e2f9 b13d 93a6 ddbd d5fc 36bd
00000180: ac15 56bd 1af6 24bc 54a1 89bd 3721 04bd
00000190: 787c 813d 0c74 1abe ffac 8c3d 8951 713d
000001a0: 226a 203e 655f dabc 4abf 9a3c acea 3f3c
000001b0: 69a8 a53d 6930 583d 535c e73c 6af8 9cbc
000001c0: 8af8 d7bd d6ec 63be e80a e1bb b60e 5fbc
000001d0: 0389 da3d adf8 b4bd f33d f4bd d8f6 d0bc
000001e0: c6ba cfbb f68a e23b bb7f 96bd 2479 e1bc
000001f0: 67d8 f83d 16ed 583b 331d eebc 795b 3e3b
00000200: b94d 64bd c996 1e3d 0e63 94bc a099 25bd
00000210: 144b 07bc bc73 703d ea6b 513d 19f1 41bd
00000220: d0ce 07bd 23cb 4a3c c078 953d 2f2e 903c
00000230: 815d 3fba e0c0 a33d 09a9 9ebd 52a1 a23d
00000240: c745 5bbc c17b 90bd a529 11bd 3bcd 36bd
00000250: 4765 dabc 3278 803d f34e aebc 80c1 873d
00000260: 766f d7bd 1b71 e23c a7c3 6d3d 66fe 66bd
00000270: b3a1 2b3d 5659 3ebd 1c17 333c c784 933d
00000280: 917b 8dbd bc2e 7a3d d967 abbc 887d 253d
00000290: 2781 8e3d 6b1b 50bd a0dd fbbc 1ae6 5abd
000002a0: 8283 6e3c 5ebb 64bd 0472 d33d 390d 6cbd
000002b0: 4b9c e03c ec5a 23bc 029d 9cbd e753 dc38
000002c0: 8ae8 473d 74cd 10bd 61ba cbbd aab1 ba3d
000002d0: 4794 b83d 10a0 23bd da55 5bbd efbc c6bc
000002e0: 6aba 3bbd ea4d 8f3c c908 f53d af6a cbbc
000002f0: acfb 413d 94d4 80bd 114d ba3c 09c5 053d
00000300: 3418 25bc ffa9 9a3d 1767 83bd e8bc 84bd
00000310: ae4f f33c 52d6 88bd ed91 b6bd 724f 373d
00000320: 69b5 8f3d 3615 443d 5e7c 97bd c5b6 5f3d
00000330: 09d3 2b3d 04c9 b8bc 2bb0 773d af13 8abd
00000340: 66d7 9abc 380e c73d 6d81 3ebd 85fa f6bc
00000350: b429 63bd c10d 94bd 32c1 5a3d c390 f3bc
00000360: 37ca 903d dfb9 0ebd ad8a e23d d51b 8c3c
00000370: f22b 1b3d 8b52 75bd 736d 813d 0981 64bd
00000380: d6bc a63d 7dd2 693c 994c 2bbd 685b d5bd
00000390: 6659 92bc e782 6cbd 11af 6e3d a959 fd3a
000003a0: 6218 4b3d 8469 85bc 80e4 e9bb 0e23 773d
000003b0: 3f7a b8bd fca2 a33c bac0 423d eabe c7bc
000003c0: 0c7c 413d 5b7b 7b3d e365 a6bd ae2d 113e
000003d0: 48e5 71bd d9fe 1bbd da1d c0bc cbb6 bfbb
000003e0: eb2b 2e3e b319 823d bfda bd3c 51d9 1c3a
000003f0: 2289 743d 2885 d13a 6917 1cbe a2e5 48bc
0.023349142 0.10309268 -0.15215695 -0.08552692 -0.083344966 0.06690901 -0.19369175 -0.10012829
-0.118530765 0.06326266 -0.041192055 -0.09517785 0.0179327 -0.012220864 0.0052219434 0.095932335
-0.026711749 0.16086873 -0.14740397 0.07694762 -0.047702856 0.11472866 -0.22125421 -0.023884382
0.11560858 -0.113480665 -0.05481909 0.1832589 0.09687843 0.046602353 0.11032774 0.016582562
0.097547 -0.043871317 0.04464334 0.014005556 -0.051644217 0.07450574 0.024777938 0.006447617
0.11752125 -0.025972418 -0.06617762 -0.12805174 -0.114030026 0.08924685 0.035602745 -0.030112185
0.11207383 0.117739245 -0.0436345 0.042046215 -0.11504133 0.010363163 0.057394885 -0.079854414
0.014087986 0.041943777 -0.05824324 -0.19513354 -0.03720361 -0.09254508 -0.040588386 0.009654316
-0.08349067 -0.13774478 0.022412129 0.05251187 -0.103371546 0.13542351 -0.06794717 -0.0890463
0.06180736 -0.082795225 0.15769231 -0.04537384 -0.20215899 0.11432121 -0.094498105 0.01145205
0.04229921 0.1404845 -0.006056679 -0.010790121 -0.12601002 0.006016459 0.13110927 -0.04917009
0.012774425 -0.0040663336 -0.101592444 -0.037911594 -0.05780325 0.086902395 -0.10822787 -0.044674713
-0.05226676 -0.010068441 -0.06720224 -0.03225824 0.06322569 -0.15083331 0.06868934 0.05891565
0.15665486 -0.026656816 0.018890042 0.011713665 0.08088762 0.052780543 0.028242266 -0.019161422
-0.10545452 -0.22258314 -0.006867755 -0.013614347 0.10670664 -0.08836494 -0.119258784 -0.02550833
-0.006339404 0.006913538 -0.073485814 -0.027523585 0.121506505 0.0033100299 -0.029066658 0.0029046221
-0.055738185 0.03871802 -0.01811364 -0.04042971 -0.008257646 0.058704123 0.051128305 -0.04734907
-0.033156216 0.012377533 0.07298422 0.017600147 -0.0007300005 0.07995772 -0.07747085 0.07940926
-0.013383335 -0.07054854 -0.035440106 -0.044629317 -0.02665962 0.062729254 -0.02127788 0.06628704
-0.10519306 0.027641824 0.058047917 -0.056394957 0.041902255 -0.046471916 0.010930803 0.0720306
-0.06908334 0.061079726 -0.020923542 0.04040292 0.069582276 -0.050807398 -0.030745327 -0.0534421
0.014557721 -0.05584275 0.10324481 -0.057629798 0.027418276 -0.009970408 -0.07647134 0.000105060455
0.04880575 -0.035352185 -0.09947658 0.09115918 0.09012657 -0.03994757 -0.05354867 -0.024260012
-0.045832075 0.017493207 0.11964566 -0.024831144 0.047359154 -0.06290546 0.022741826 0.03265861
-0.010076571 0.075519554 -0.06416147 -0.064813435 0.02970108 -0.06681503 -0.08914552 0.0447535
0.07017023 0.04787179 -0.07396768 0.054617662 0.041949306 -0.02255679 0.06047074 -0.067420356
-0.018901538 0.09719509 -0.04651015 -0.030148754 -0.055459693 -0.07229186 0.0534069 -0.029732114
0.070698194 -0.03484523 0.110616066 0.017103115 0.037883706 -0.059893172 0.06319704 -0.05578712
0.08141486 0.014271376 -0.041821096 -0.10417825 -0.017864894 -0.057742026 0.058272425 0.0019329089
0.0495838 -0.016285665 -0.007137835 0.060336165 -0.090076916 0.019975178 0.04754708 -0.024383027
0.04723744 0.061396938 -0.08124902 0.14177582 -0.05905655 -0.03808484 -0.023451734 -0.005850648
0.17008941 0.06352558 0.023175595 0.00059833104 0.059701093 0.0015985118 -0.15243305 -0.01226178

fc_two.bias f4 [84]
00000000: 8017 d83e 48d5 af3c 89ad aebd 6a7a 6e3e
00000010: 07e6 a13e 13de 433e b423 343e 83f1 f0bc
00000020: 65f4 cd3d a6ee 8e3e df0e 353e 48c6 18be
00000030: 8428 debd 67d5 0a3c 568c 1f3e 7f0a cebd
00000040: b287 c03e ed61 9bbd 0feb 153e 4d4e ad3e
00000050: b155 3fbd f757 8ebd 4d5b 783e 8054 803b
00000060: add7 113d 4165 91bd 7e53 c3bd 4906 023d
00000070: 844b 473d 7961 bdbd 4b2c c8bb e126 5b3d
00000080: 4a2e 4d3d c483 0abe 83a6 733c b3df 173d
00000090: 2d94 8e3e d3de 0b3d 1f0b b83e a489 3c3e
000000a0: 3825 8d3e f654 06bc 87ee 8d3e 0365 5d3d
000000b0: a6c5 65bd 88d5 d13d 882a 09bd 32f5 a1bd
000000c0: 4299 b43e b7e6 f03e b82e 5b3e 3422 b2bd
000000d0: 7bb1 1abe 5d49 b1bd edef 9a3b c802 753d
000000e0: 1e68 f23d a8bb 08be 018c e53d b95c 6c3e
000000f0: c597 76bd eab1 ea3a d3cc 3abd 6ec6 71bc
00000100: 1b35 12bd 3309 bb3d b135 e33e 92c5 0c3f
00000110: 2832 de3e 0200 bb3c 4cbc 713e 9ac0 c63d
00000120: 9577 a3bd 9f48 2b3e 1b10 f4bb 7510 b8bc
00000130: 4103 6c3c 90db c3bc 8f4f 983d 0ea7 d5bd
00000140: dc14 bebd 88e2 c53e 740b ee3e 7455 dcbd
0.4220543 0.021464005 -0.08529193 0.23288885 0.3162081 0.19127683 0.17591745 -0.029412037
0.1005638 0.2791645 0.17681454 -0.14919388 -0.108475715 0.008473731 0.15580878 -0.10060596
0.37603527 -0.07587037 0.14640449 0.338488 -0.04671258 -0.06950372 0.24253578 0.003916323
0.035606075 -0.07099391 -0.09537409 0.031744275 0.048656 -0.09247107 -0.0061087958 0.053503875
0.050092973 -0.13526827 0.014871242 0.03707857 0.27847424 0.03414805 0.35945985 0.1841188
0.27567458 -0.008198967 0.27721044 0.05405141 -0.056096695 0.10245806 -0.033487827 -0.079080954
0.35273176 0.4705102 0.2140454 -0.0869793 -0.15106766 -0.08656571 0.0047283084 0.059817106
0.11836265 -0.13352835 0.11208344 0.23082246 -0.060203332 0.0017905806 -0.04560549 -0.014756782
-0.035695177 0.09132614 0.443769 0.5498897 0.4339764 0.022827152 0.23606986 0.097047046
-0.07981793 0.16726921 -0.007448209 -0.022468785 0.014405073 -0.023908406 0.074370496 -0.10432254
-0.09281322 0.38649392 0.46493113 -0.107584864

fc_three.weight f4 [10, 84]
00000000: 036d d9bd 6f9e f53b f80b ea3d 7c42 683d
00000010: 1ec0 a13e 27c3 92be 49e9 833e 053d bdbd
00000020: 343e 36be 5d75 0a3e b8a0 1ebd 84c4 2f3e
00000030: c805 8bbd 9629 afbd 26e8 31be be89 1e3e
00000040: 5851 3b3e 80fa 4d3d 9803 6bbe 0519 28be
00000050: a7f5 ee3c 47e2 743d 67a1 003e e9e8 933d
00000060: 3217 8fbd 62f4 003e 3a75 ec3d 0403 733e
00000070: 7c9a 873d 58d1 4c3e ac3b 273d d2c9 d7bd
00000080: 7a05 98bd 131d 743e 2792 6abc 25df 88bd
00000090: bf04 90bc 2d22 813d f318 743e 6174 adbd
000000a0: 9c5f 6ebe bd3c 393e 3337 4cbe e935 d8bc
000000b0: e298 97bd a7e1 34be 964f 57bd 7f39 1abd
000000c0: 94af 65bd 0e20 143d 7a68 45be 0ad9 183e
000000d0: 74f7 ba3d 555a 873d 1650 653e cc71 9b3e
000000e0: 0636 0d3e 9a76 513e 89fb 533e fa05 133e
000000f0: 4aba 243e 6993 b2bc 9fd0 193e ec04 f2bd
00000100: a7fc c1bc 4fb1 753c b507 3e3d 84e3 c1be
00000110: dddb 5cbe 82f3 133d 1341 273e 3516 50bd
00000120: 0e66 303e ea29 43be 20c8 103e f250 f83d
00000130: a452 073e 359b 173e 6c00 4e3c 97db 8bbd
00000140: 0b4e d0bc 8079 41be 42fd cbbe b9b2 2a3e
00000150: 386b babe ecfe ffbd f8bb 25bd 88c4 30be
00000160: 18df 933e 53ea ae3d 302f 59bd 94b2 323c
00000170: b830 14be 2107 2a3d 7bba 9cbe 776d b13d
00000180: 9c60 c8bc c112 05be 7f82 62be 8110 f73b
00000190: 4bba b0be 3b26 d4bd 7b53 4b3d 9b6f 88bd
000001a0: c5de df3d 18d7 8bbd 2649 3e3a 8708 f83d
000001b0: 7b2b 923e a5e4 71bc 82f1 81bd 3dad babd
000001c0: c02b d7bc e56b 92be 0000 2c3e e1cd 48bd
000001d0: 50e2 c93d cb0a a93c 7028 ccbd c09d 363c
000001e0: 74ab 623e f9ae 063b fa44 fcbc 287b 033e
000001f0: fe45 48be b9f7 99bc ccdc aabd de0f 82bc
00000200: 6b91 acbd 217b 843e 4c1a 193d 0e1b a7b8
00000210: 020d 51be 7875 f7bd 08c2 b6bd bd9e 1d3e
00000220: 8bd5 c43e 6916 cdbd 3466 a13d bfb2 623e
00000230: 148b 3b3e 323e 893e 7fc8 4fbd e59d fdbd
00000240: bc56 ae3b b7dd 0dbe 2321 8fbe 7913 e13d
00000250: d55f 9b3e 3a78 2e3c 00e1 2cbd ae67 aebe
00000260: 85db 1fbe 5721 c83d 9eab 093c 6e00 113e
00000270: 063b 123e 6e42 c93d 6162 0fbe 74ef 1bbe
00000280: 7f77 2e3d e024 e03c 62f4 843e e8db 96bd
00000290: 6720 dd3c 0297 e5bd 8bc2 22bd dabd 573e
000002a0: fc7d 323e 47c3 2dbd 699e b43e 4696 fdbd
000002b0: 52b9 74be a3a5 013d 99bc 113e 5e15 cf3c
000002c0: cc03 f7bd 0ab2 5d3e 0f99 053d 9b3c 8fbd
000002d0: 4404 943d 353c 1d3e d8ef b93d 3f01 8f3e
000002e0: b86d 4e3e 0da8 b43d 9368 b8bc f9d6 5f3d
000002f0: 2d7b 23bd 971a 523d 0386 383e 5499 aabd
00000300: 5f8f 953d 7839 b5bd d74c eebc 5bb9 fb3c
00000310: 25b6 e8bd ef85 2a3e 79bb 06be 6d2e a73b
00000320: 53b2 7ebd 7b29 693e 6a9d f53d e659 2fbe
00000330: 224f 3fbe 2b4e 5fba 8a75 803d 83b2 22be
00000340: b764 2dbd 5af3 87bd bdfa e03d adf6 123e
00000350: c4a7 2c3d 6a9f 7a3c bd02 913d 8c2c ca3d
00000360: 18f5 cfbc 56c0 0c3c a8bb 83bd d456 5dbc
00000370: 2148 8dbd c92a ae3d 6bb5 683e 5556 ed3c
00000380: d735 77be d7cb 43bd 7b92 253e f0bc 4abe
00000390: 52b1 3e3e 3912 0cbe 8d6d 2c3e 4609 4b3e
000003a0: f2f3 113e d1c8 c33d ff00 67bd 4d6d 2b3e
000003b0: 7558 a93e 7119 0d3e 0e4c 46ba 9dc6 32be
000003c0: 1f63 aebc d7ef 9c3d b66c b3bd ce29 a13d
000003d0: 2ebe 45bd dbbd f03c b412 47be 6938 f43d
000003e0: a7c2 683d 555e 9e3d 0e02 1f3e ecbb 2f3d
000003f0: 5833 783d a2fe a23d e250 873c 86ca 883e
-0.106164955 0.0074956934 0.11428064 0.05670403 0.31591886 -0.28664514 0.2576392 -0.09240154
-0.17797166 0.13521333 -0.038727492 0.17164809 -0.06788212 -0.08552854 -0.17373714 0.15482232
0.18292749 0.050287724 -0.2295059 -0.16415794 0.02916987 0.059786107 0.1256157 0.072221585
-0.06986846 0.12593225 0.11545797 0.23731619 0.066212624 0.20001733 0.040828392 -0.10536541
-0.074229196 0.23839216 -0.014317072 -0.066831864 -0.017580388 0.06305347 0.23837642 -0.08469463
-0.2327866 0.18089576 -0.19942932 -0.026392894 -0.07402207 -0.17664205 -0.052566133 -0.03765249
-0.056075647 0.036163382 -0.19278136 0.14926544 0.09129229 0.06609026 0.22393832 0.30360258
0.1379014 0.20455399 0.20701422 0.14357749 0.16086689 -0.021798806 0.15020989 -0.11817345
-0.023680044 0.014995887 0.04639407 -0.37868893 -0.21568246 0.0361209 0.16333418 -0.05080243
0.17226431 -0.19058958 0.14138842 0.12124814 0.13215119 0.148053 0.012573343 -0.06828993
-0.025427839 -0.18894005 -0.39841658 0.1666974 -0.36409926 -0.12499794 -0.040462464 -0.1726247
0.28881145 0.085407875 -0.053023517 0.010906834 -0.1447171 0.041510705 -0.30611023 0.08663457
-0.02446013 -0.12995435 -0.22120093 0.007539809 -0.3451713 -0.103588544 0.04964016 -0.06661912
0.10931162 -0.06828135 0.0007258825 0.121110015 0.28548798 -0.014763986 -0.06344892 -0.09115074
-0.026265979 -0.28597942 0.16796875 -0.049024466 0.09857619 0.02063503 -0.0996865 0.011146009
0.22135717 0.002055107 -0.03079461 0.12839949 -0.1955795 -0.018794881 -0.08342895 -0.015876707
-0.08426174 0.2587519 0.037378594 -7.96822e-05 -0.20415118 -0.12082952 -0.08923727 0.15392585
0.3844417 -0.1001404 0.07880822 0.22138499 0.18314773 0.26805264 -0.050728317 -0.123836316
0.005320398 -0.13854109 -0.2795497 0.10990042 0.30346552 0.010648781 -0.042206764 -0.34063476
-0.15611084 0.09771984 0.008402733 0.1416032 0.14280328 0.098271236 -0.14002372 -0.15228063
0.04259443 0.027361333 0.259677 -0.073661625 0.02699299 -0.11210443 -0.039736312 0.21068516
0.17430872 -0.04242256 0.35277107 -0.12382178 -0.23898819 0.031652104 0.142321 0.025278743
-0.12061271 0.21649948 0.03261667 -0.069939815 0.07227376 0.15354998 0.0907895 0.27930638
0.20159042 0.08821116 -0.022510802 0.054648373 -0.03991239 0.05129489 0.18019871 -0.08330026
0.073027365 -0.08848852 -0.029089374 0.030728033 -0.11362866 0.16652654 -0.13157453 0.00510197
-0.062181782 0.2276973 0.11992915 -0.17124137 -0.1868253 -0.0008518423 0.06272419 -0.1588841
-0.042332377 -0.066382125 0.109853245 0.14351912 0.04215218 0.015296796 0.070806004 0.09871778
-0.025385424 0.008590778 -0.06432277 -0.013509471 -0.06898523 0.08504254 0.22725455 0.02897183
-0.24141632 -0.04780182 0.16169159 -0.19798636 0.1862233 -0.13678826 0.16838665 0.19827756
0.14253214 0.09559787 -0.056397434 0.16740914 0.330753 0.13779236 -0.00075644336 -0.17458577
-0.021287499 0.07662933 -0.08760969 0.07869302 -0.048277073 0.029387405 -0.19440728 0.11924822
0.05682626 0.07732836 0.15528128 0.042903826 0.06059584 0.079587236 0.01651806 0.26717013

fc_three.bias f4 [10]
00000000: 8d7d c2be 9ae1 25bf 5ef3 d7bd 1840 c63e
00000010: 82d9 013f 484e b3bc c369 463e 66cb 8dbe
00000020: 788b e43e 7e59 8bbe
-0.37986413 -0.64797366 -0.105444655 0.38720775 0.50722516 -0.021887913 0.19376282 -0.27694243
0.44637656 -0.27216715
