pytorch_a_60_mins_blitz/Scripts/models/cifar_net.pth (torch_old, 249655 bytes, 10 tensors)

conv_layer_one.weight f4 [6, 3, 5, 5]
-0.11611407 -0.12907763 0.043689284 0.09119452 -0.002377386 -0.14417674 -0.12962544 -0.09680878
-0.019437674 -0.0023337407 -0.1791256 -0.07311088 -0.23267886 -0.117107525 -0.051540595 -0.084221706
-0.067168094 -0.035384763 0.05477425 0.0775461 -0.00016508675 -0.0066997427 -0.06925535 0.017185433
0.023909885 -0.13808478 -0.0404966 -0.1762543 -0.07204937 -0.018997826 0.014462676 -0.04374113
-0.09891617 0.072899535 -0.027491277 -0.1389852 -0.057330336 0.06807427 0.10984284 0.005523253
-0.09565983 -0.10636511 -0.117659986 -0.083164476 -0.09239566 -0.22473493 -0.111752555 -0.09759495
-0.016836897 -0.10584587 0.04436586 0.16212325 0.13513829 0.21465687 0.19682075 0.25133333
0.23189312 0.32867685 0.1453837 0.21682857 0.18898949 0.21761596 0.27372533 0.30116317
0.27091253 0.1443355 0.2047181 0.111356 0.108186476 0.14428525 0.06799839 -0.007185658
0.06009785 0.08711349 0.15367144 -0.09375163 0.022281747 -0.03930942 -0.02440474 -0.12304888
-0.14412612 -0.036069814 0.07165976 -0.15435186 -0.26020125 -0.4108513 -0.4247049 -0.34635594
-0.25914246 -0.25761595 -0.15574874 -0.12601466 -0.14630483 -0.081140004 0.14456928 0.39276394
0.43670264 0.5706992 0.41543806 0.29685566 0.09042841 0.12987192 0.21402444 0.1914804
-0.02766334 0.09402911 0.33210766 0.08319668 0.115133435 0.049170174 -0.32552594 -0.26150408
-0.31155488 -0.27968168 -0.16172434 -0.17326483 -0.03766045 -0.24675307 -0.057824057 -0.020463856
0.16592112 0.3042347 0.33541805 0.20817868 0.14336817 -0.13196191 0.14677526 0.19923311
0.06794879 -0.022025554 0.06374256 0.36503235 0.15097077 0.14848384 0.13425434 -0.18597373
-0.29063082 -0.23836298 -0.11559322 -0.12983352 -0.02416352 -0.117694184 -0.22452228 -0.07068071
-0.026599595 -0.11643893 0.036860913 0.16314642 -0.023777347 0.10189013 0.10076463 0.26585305
0.3097374 0.47585624 0.28838915 0.2661728 0.15129279 0.25933713 0.2157053 -0.026619343
0.15416358 -0.048730772 -0.26680925 -0.43628183 -0.3795814 0.04678997 -0.32336426 -0.32033318
-0.13883439 -0.17420979 -0.08786834 -0.29056957 -0.07085981 -0.03852705 -0.26517284 -0.107264325
0.09121909 0.21160114 0.30274338 0.18814813 0.05111356 0.055444844 0.20208286 -0.022093274
-0.10323751 0.04546528 -0.08609246 -0.400223 -0.3453236 -0.43084207 0.038584072 -0.22765073
-0.1755479 -0.057347577 -0.12264921 0.045871757 -0.07505116 -0.017173763 0.14198373 0.06635799
-0.29902717 -0.04207637 0.014509097 0.13930191 0.17154725 -0.0064682043 0.15169646 0.12397071
-0.007394014 -0.09952567 0.20674264 -0.1532766 -0.26081786 -0.19484973 -0.17312317 0.17227581
-0.10813658 -0.0932069 -0.06876249 0.13361174 0.029973865 0.056594796 0.24647999 0.28327677
0.08589131 0.18768282 0.1804085 0.3251436 0.16538617 0.2450565 0.2931181 0.31065664
0.410558 0.4183629 0.42049712 0.06567293 0.122065194 0.26445028 0.13066497 0.11788309
0.009948722 -0.0034549674 -0.02333903 -0.12604718 -0.022646481 -0.27998248 -0.07210889 -0.26060244
-0.294053 -0.10085489 -0.2948662 -0.20235942 -0.27908912 -0.24368793 -0.1890695 -0.24064682
00000000: 37cd edbd ed2c 04be 89f3 323d 31c4 ba3d
00000010: ebcd 1bbb 11a3 13be 88bc 04be af43 c6bd
00000020: c23b 9fbc acf1 18bb b46c 37be 28bb 95bd
00000030: 5e43 6ebe 12d6 efbd 3b1c 53bd 6e7c acbd
00000040: 6d8f 89bd 9def 10bd f75a 603d 7dd0 9e3d
00000050: 231b 2db9 8489 dbbb c0d5 8dbd 77c8 8c3c
00000060: aade c33c 1966 0dbe c3df 25bd 027c 34be
00000070: 9f8e 93bd 54a1 9bbc dcf4 6c3c e629 33bd
00000080: 9094 cabd 5a4c 953d 6335 e1bc 2352 0ebe
00000090: 37d3 6abd 866a 8b3d 48f5 e03d 68fc b43b
000000a0: 4de9 c3bd f3d5 d9bd b8f7 f0bd 2352 aabd
000000b0: f039 bdbd ea20 66be 86de e4bd dcdf c7bd
000000c0: 88ed 89bc b8c5 d8bd fab8 353d a303 263e
000000d0: b161 0a3e 03cf 5b3e 618b 493e c3ae 803e
000000e0: 6475 6d3e 5548 a83e 77df 143e 4f08 5e3e
000000f0: 7686 413e b8d6 5e3e ba25 8c3e 0f32 9a3e
00000100: 0cb5 8a3e afcc 133e 9fa1 513e 9d0e e43d
00000110: df90 dd3d 83bf 133e bd42 8b3d ab75 ebbb
00000120: 2a29 763d 8f68 b23d 0c5c 1d3e db00 c0bd
00000130: 3688 b63c ea02 21bd 73ec c7bc 0d01 fcbd
00000140: cc95 13be f1bd 13bd 5ac2 923d 6a0e 1ebe
00000150: 1939 85be 1a5b d2be ec72 d9be 9155 b1be
00000160: 52ae 84be 3de6 83be 997c 1fbe fd09 01be
00000170: efd0 15be bb2c a6bd f809 143e 5b18 c93e
00000180: 7d97 df3e 5819 123f 4cb4 d43e 77fd 973e
00000190: 8832 b93d 25fd 043e 3929 5b3e 7013 443e
000001a0: 3b9e e2bc 5692 c03d 040a aa3e 0563 aa3d
000001b0: 14cb eb3d aa66 493d 56ab a6be dde3 85be
000001c0: 1f84 9fbe 7032 8fbe 119b 25be 566c 31be
000001d0: d841 1abd d6ac 7cbe ebd8 6cbd d1a3 a7bc
000001e0: 3ae7 293e a7c4 9b3e eabb ab3e cb2c 553e
000001f0: 1bcf 123e 0621 07be 414c 163e c403 4c3e
00000200: bc28 8b3d ef6e b4bc 768b 823d 85e5 ba3e
00000210: 1598 1a3e 260c 183e f879 093e e66f 3ebe
00000220: 90cd 94be 6d15 74be 23bc ecbd 14f3 04be
00000230: 93f2 c5bc a609 f1bd 2be9 65be 0cc1 90bd
00000240: 65e7 d9bc 8977 eebd 78fb 163d db0f 273e
00000250: b6c8 c2bc c6ab d03d b05d ce3d e41d 883e
00000260: e795 9e3e 6ea3 f33e bea7 933e cd47 883e
00000270: 7fec 1a3e d6c7 843e dae1 5c3e cf10 dabc
00000280: 0fdd 1d3e eb99 47bd 399b 88be 5560 dfbe
00000290: 7e58 c2be d7a6 3f3d 0090 a5be b602 a4be
000002a0: 9a2a 0ebe 0d64 32be 51f4 b3bd 89c5 94be
000002b0: f31e 91bd 8ace 1dbd bcc4 87be 66ad dbbd
000002c0: 13d1 ba3d f8ad 583e 2e01 9b3e e7a9 403e
000002d0: 745c 513d 221a 633d cfee 4e3e f4fc b4bc
000002e0: 306e d3bd cd39 3a3d 3e51 b0bd 07ea ccbe
000002f0: 41ce b0be 5597 dcbe 550a 1e3d 461d 69be
00000300: d4c2 33be 4be5 6abd 822f fbbd 06e4 3b3d
00000310: 6cb4 99bd feaf 8cbc 2f64 113e b3e6 873d
00000320: 171a 99be 4658 2cbd 90b7 6d3c 29a5 0e3e
00000330: 15aa 2f3e 3bf3 d3bb 5156 1b3e 5be4 fd3d
00000340: 7c49 f2bb 1dd4 cbbd 58b4 533e 8bf4 1cbe
00000350: eb89 85be b086 47be 3347 31be 1269 303e
00000360: b676 ddbd 42e3 bebd 59d3 8cbd 84d1 083e
00000370: c08b f53c f2cf 673d 4065 7c3e a709 913e
00000380: c8e7 af3d ed2f 403e 01bd 383e 3979 a63e
00000390: fe5a 293e 17f0 7a3e 9313 963e 630e 9f3e
000003a0: a834 d23e a933 d63e 664b d73e 877f 863d
000003b0: 51fd f93d 0766 873e 0acd 053e b16c f13d
000003c0: f7ff 223c bc6c 62bb 7e31 bfbc 8312 01be
000003d0: 1d85 b9bc dd59 8fbe d3ad 93bd af6d 85be
000003e0: 1d8e 96be 028d cebd b4f8 96be 4f37 4fbe
000003f0: c5e4 8ebe 5489 79be 6f9b 41be 1f6c 76be

conv_layer_one.bias f4 [6]
0.6282672 -0.13300969 -0.4289666 -0.5201986 -0.18762621 -0.31531647
00000000: 1fd6 203f b133 08be 83a1 dbbe bc2b 05bf
00000010: 1621 40be 2971 a1be

conv_layer_two.weight f4 [16, 6, 5, 5]
0.0059698443 0.029433057 -0.06569592 -0.034655023 -0.034542702 0.11624371 0.062633306 0.062643975
-0.024105418 -0.04893934 -0.0634877 -0.008740669 -0.040080238 -0.025986545 -0.021008577 -0.043078568
-0.025842432 0.049395073 0.03561635 0.01592032 -0.10714019 -0.03212401 0.0058673103 -0.047622595
0.024565462 0.01869825 0.012303612 0.01401586 -0.047503788 -0.05500212 -0.116561584 -0.055193756
0.031469774 0.076196216 0.07362216 -0.06838405 0.014044953 -0.0060283723 -0.057764467 -0.054766763
-0.18003002 -0.09489813 -0.08007292 0.115228646 0.047076765 -0.08910193 -0.020154456 -0.082200974
0.014769882 0.020768669 0.043603905 0.11271827 0.16502754 0.06855126 0.20069936 0.03952126
0.13263956 0.093394294 0.24787934 0.16217336 0.18665937 0.22701584 0.10836995 -0.05856878
-0.009787403 0.019182999 0.07882513 0.16569471 0.1322691 0.12163366 0.11914964 0.13651866
0.039576497 0.033043034 -0.05824929 0.039250042 -0.00094748056 -0.04622653 0.09979524 0.13985768
0.12728657 0.082267694 0.21349195 0.21659778 0.10167946 0.15288527 0.07704725 0.15720014
0.14306575 0.054038707 -0.008491447 0.013513029 0.046632867 0.109569244 0.059004046 -0.010526384
-0.022428565 0.05638411 0.0079334155 -0.047269627 0.02730407 -0.08218134 -0.1017088 -0.10758821
0.017138451 -0.14360529 -0.18650065 -0.12834448 -0.008263473 0.07072655 -0.056731712 -0.09725601
0.0031957438 -0.022655569 0.018194549 0.009450177 0.024486165 -0.069002345 -0.07023977 -0.023395978
0.04490576 -0.008870852 0.009945251 -0.06341715 -0.03628881 -0.08579585 -0.16236521 -0.22636367
-0.18347536 -0.085796066 0.06260631 0.07708881 0.06827537 -0.003592462 -0.13457274 0.09806843
-0.02033341 0.0530981 -0.0078097605 -0.084647335 0.11057367 0.041542873 0.014369511 -0.060694315
-0.14776525 0.07417781 0.0788229 -0.06403606 0.05957832 -0.06987668 0.43192762 0.2119436
-0.085673325 -0.32013342 -0.26789898 0.29214528 0.14095183 -0.1005566 -0.324072 -0.33702582
0.38118917 0.1917678 -0.08885384 -0.33656546 -0.39030105 0.26169726 0.083318844 -0.06520634
-0.18633902 -0.23046228 0.3834742 0.15301678 0.044775695 -0.097271025 -0.10299771 -0.036400195
-0.14859855 -0.1389741 -0.05334506 -0.0674176 -0.11580598 -0.18179677 -0.21428236 -0.10833178
-0.09650273 -0.04759578 -0.0146916285 -0.105418436 -0.08158792 0.013722807 0.0742403 -0.020747347
-0.00735872 -0.084311455 -0.09710948 0.11609794 0.12546071 0.02468505 0.012279904 -0.023791332
-0.09028829 0.046308644 0.08259395 0.1259823 0.113550484 0.067353144 0.018446725 -0.027823662
-0.030912746 -0.08886819 0.020637313 0.03954076 -0.01389486 0.05448314 -0.041040156 0.027154908
-0.017742502 -0.028319027 -0.012444986 -0.010607121 -0.040798556 -0.040476445 -0.016477557 -0.09714132
0.040302433 0.02768497 0.0024311184 -0.07075679 -0.03362614 -0.0018034771 -0.062020462 -0.09709809
0.0266925 -0.049133763 -0.043991618 0.043254167 -0.0037729715 -0.025355713 -0.04169416 -0.0011697384
-0.04298501 0.018664971 -0.012895497 0.11412547 0.13551818 0.11964188 0.09998788 0.05830697
0.1454296 0.21753249 -0.03307154 0.023438007 0.012535773 -0.019577641 -0.05169366 0.03586271
00000000: af9e c33b 981d f13c 958b 86bd 6df2 0dbd
00000010: a67c 0dbd 2f11 ee3d e445 803d 7c4b 803d
00000020: ba78 c5bc 9e74 48bd d705 82bd 0635 0fbc
00000030: 2d2b 24bd bce1 d4bc 2e1a acbc 2773 30bd
00000040: 82b3 d3bc 7d52 4a3d 73e2 113d 556b 823c
00000050: 516c dbbd 7794 03bd 9142 c03b e90f 43bd
00000060: 823d c93c 132d 993c 1795 493c c7a2 653c
00000070: 5593 42bd e749 61bd d7b7 eebd d912 62bd
00000080: 73e6 003d c30c 9c3d 37c7 963d f00c 8cbd
00000090: cd1c 663c a789 c5bb 6f9a 6cbd 1d53 60bd
000000a0: ca59 38be f359 c2bd 45fd a3bd fffc eb3d
000000b0: 91d3 403d 137b b6bd f51a a5bc fc58 a8bd
000000c0: 60fd 713c 0e23 aa3c 029a 323d d6d8 e63d
000000d0: fbfc 283e 9a64 8c3d 2284 4d3e 0be1 213d
000000e0: aad2 073e 8245 bf3d 15d4 7d3e c610 263e
000000f0: a223 3f3e d776 683e 10f1 dd3d d1e5 6fbd
00000100: 585b 20bc aa25 9d3c 126f a13d e0ab 293e
00000110: 8d71 073e 111b f93d ba04 f43d 8ccb 0b3e
00000120: f71a 223d 2258 073d cf96 6ebd a7c4 203d
00000130: 5860 78ba 0858 3dbd 7261 cc3d da36 0f3e
00000140: 6957 023e f77b a83d a29d 5a3e cfcb 5d3e
00000150: 523d d03d f58d 1c3e f3ca 9d3d 13f9 203e
00000160: d47f 123e b157 5d3d b61f 0bbc c065 5d3c
00000170: 1b02 3f3d d765 e03d 3aae 713d db76 2cbc
00000180: 1cbc b7bc 06f3 663d 28fb 013c cc9d 41bd
00000190: c9ac df3c b14e a8bd b44c d0bd 3557 dcbd
000001a0: f065 8c3c 440d 13be 07fa 3ebe bc6c 03be
000001b0: 8563 07bc 15d9 903d 835f 68bd 292e c7bd
000001c0: af6f 513b 2c98 b9bc bc0c 953c ead4 1a3c
000001d0: 3697 c83c 1a51 8dbd ded9 8fbd eca8 bfbc
000001e0: 1aef 373d 0d57 11bc 68f1 223c dae0 81bd
000001f0: 93a3 14bd bcb5 afbd 1143 26be e1cb 67be
00000200: f7e0 3bbe d9b5 afbd bd37 803d bde0 9d3d
00000210: f5d3 8b3d 836f 6bbb 70cd 09be 1ad8 c83d
00000220: 4092 a6bc 657d 593d 05e9 ffbb 955b adbd
00000230: 7374 e23d dc28 2a3d 196e 6b3c 9a9a 78bd
00000240: c64f 17be 89ea 973d e76d a13d 5625 83bd
00000250: 6508 743d 811b 8fbd 9e25 dd3e be07 593e
00000260: 7f75 afbd 87e8 a3be 0e2a 89be 1194 953e
00000270: ad55 103e 9ef0 cdbd c4ec a5be a68e acbe
00000280: 3a2b c33e c75e 443e 01f9 b5bd 4f52 acbe
00000290: 8ad5 c7be 2ffd 853e 12a3 aa3d e78a 85bd
000002a0: a8cf 3ebe 4efe 6bbe bb56 c43e 6eb0 1c3e
000002b0: b866 373d 0836 c7bd 77f0 d2bd 5f18 15bd
000002c0: 382a 18be 3a4f 0ebe 5a80 5abd 3d12 8abd
000002d0: b02b edbd ef28 3abe d66c 5bbe 0ddd ddbd
000002e0: 39a3 c5bd cbf3 42bd 28b5 70bc 9fe5 d7bd
000002f0: 9117 a7bd a0d5 603c 4c0b 983d 57f6 a9bc
00000300: 6b21 f1bb 7cab acbd 56e1 c6bd c2c4 ed3d
00000310: c678 003e 4d38 ca3c a731 493c 0ae6 c2bc
00000320: 11e9 b8bd 22ae 3d3d 0427 a93d 8101 013e
00000330: 288d e83d 72f0 893d 961d 973c 73ee e3bc
00000340: ba3c fdbc 8700 b6bd 950f a93c 7ef5 213d
00000350: 44a7 63bc b729 5f3d b919 28bd f873 de3c
00000360: b958 91bc 4efd e7bc 0ee6 4bbc 7dc9 2dbc
00000370: 631c 27bd a1ca 25bd f1fb 86bc 07f2 c6bd
00000380: 2a14 253d 97cb e23c 6653 1f3b f0e8 90bd
00000390: 90bb 09bd a662 ecba 2b09 7ebd 5ddb c6bd
000003a0: 3baa da3c 7c40 49bd 8e30 34bd 482b 313d
000003b0: f543 77bb c9b6 cfbc 7fc7 2abd e851 99ba
000003c0: 0d11 30bd 48e7 983c a247 53bc 9dba e93d
000003d0: 47c5 0a3e cd06 f53d 72c6 cc3d 4ad3 6e3d
000003e0: 7feb 143e d6c0 5e3e 0676 07bd 1001 c03c
000003f0: d862 4d3c 4a61 a0bc bbbc 53bd c7e4 123d

conv_layer_two.bias f4 [16]
-0.051572025 -0.06327007 -0.52748793 -0.49840996 -0.3248115 -0.07377898 0.58559775 0.14436796
1.0341796 -0.110718936 0.4534792 -0.10302237 0.53212804 0.2761726 -0.67393386 -0.616589
00000000: 303d 53bd bd93 81bd 7309 07bf 972f ffbe
00000010: b14d a6be 6f19 97bd bce9 153f 32d5 133e
00000020: ff5f 843f 9cc0 e2bd 6d2e e83e 64fd d2bd
00000030: 8b39 083f 7f66 8d3e ee86 2cbf c7d8 1dbf

fc_one.weight f4 [120, 400]
-0.0017131122 -0.017941542 0.017359007 0.033360347 0.0043566776 -0.04619586 -0.0446275 -0.043846868
0.018715648 0.012650615 -0.006477189 0.026645986 -0.039300866 -0.017808313 -0.046104256 -0.04194077
0.03228818 0.02877186 -0.06236926 0.028712844 -0.010685886 -0.016573003 -0.025459394 0.032009497
0.025976472 0.03262755 0.030217722 -0.044324916 0.021160724 -0.0016288947 -0.03997184 0.04736853
-0.047061667 -0.043765277 -0.015940985 -0.00039312654 -0.049841926 -0.03448003 0.028711708 -0.005295747
-0.045815628 0.027120288 0.03521698 0.008471043 -0.0026401225 -0.014534455 0.03687758 -0.018622166
-0.020030485 0.011317392 -3.1148727e-05 -0.045619946 0.0196991 -0.052096117 0.041182123 -0.004548602
-0.04489469 -0.013875653 0.028484982 0.00869473 0.031472117 -0.04485952 0.0031411469 0.022780681
-0.019930035 0.017686699 0.006420979 -0.043408047 -0.05072633 0.0008520933 -0.030818082 -0.036485784
-0.044252735 -0.0025236192 -0.006732998 -0.02979056 0.02498825 -0.035136413 -0.018178765 0.037869062
0.020643488 0.026057148 0.011876331 -0.031510506 0.040175553 -0.03588862 -0.0030740045 -0.02810001
0.023440091 -0.012241143 0.042761654 -0.029949661 -0.010290275 -0.030397391 -0.0053360644 0.02712918
-0.036625434 -0.052904394 0.033639286 0.035984397 -0.014515618 0.01584975 -0.007662193 0.029098319
0.011277701 -0.046104793 -0.017006785 -0.048044678 -0.0032064845 0.0010735514 0.018250592 0.0043240963
-0.04150117 0.027953414 -0.005501317 -0.042112496 -0.0075674364 0.018763008 -0.04024233 0.02098957
0.034540545 0.023272362 0.0306588 0.019651799 0.04240269 0.021883085 0.041759837 -0.02876497
0.04935975 0.050071783 -0.03999841 -0.04593669 -0.04004062 0.0308787 0.016127525 0.00961438
-0.038431425 -0.021146674 0.00057984586 -0.014096925 0.043473534 -0.044648904 0.024886863 -0.021300338
0.03743943 -0.035687856 -0.03563494 -2.4873409e-05 0.045699697 0.010910516 0.0168158 -0.009773727
-0.006914299 0.017492298 -0.021740783 -0.047167845 0.008329265 -0.040861424 0.03013853 -0.042184416
-0.0004007291 -0.027471099 -0.008389456 0.00048549724 -0.03282825 0.03052578 -0.010842303 0.016147451
0.020738807 -0.04871742 0.01712117 -0.049720604 -0.040439703 0.020623986 -0.051173277 -0.049499225
0.02117669 0.04478229 0.01839228 0.028107146 0.014596069 -0.005767317 -0.03193001 -0.013835647
-0.01124921 0.022467868 -0.0048999027 0.023555616 -0.00672293 -0.040034655 -0.0055787656 0.015061697
-0.051624198 -0.040078286 0.01960727 -0.018745368 0.03624368 -0.03963712 -0.041052155 -0.045674764
-0.014244834 -0.0026987249 -0.011651996 0.0070132096 -0.04073995 0.015787385 0.0024778466 -0.008716622
-0.041566312 0.018502075 -0.029213393 -0.04418328 0.00041716552 0.0134644555 -0.036952637 -0.0019250015
0.0029469286 0.020645602 0.003337791 -0.0034817355 0.015671007 -0.013149491 0.0057908036 -0.05430619
-0.034473 0.012666257 -0.031411067 0.0362564 -0.027761454 0.0018187367 0.032038435 -0.029345807
0.04450924 0.026037177 0.009171027 0.024324175 -0.008321661 0.0008147069 -0.007557971 0.03767993
-0.036049582 0.024590168 -0.0411242 0.030603433 0.02511029 -0.03774154 -0.033885073 -0.004650433
0.025360506 -0.033491835 -0.0057026595 -0.025650514 -0.054417957 0.0037200486 0.016105449 -0.051033124
00000000: 828a e0ba 24fa 92bc 7a34 8e3c dca4 083d
00000010: 76c2 8e3b df37 3dbd 53cb 36bd c698 33bd
00000020: 8f51 993c 8644 4f3c 993e d4bb af48 da3c
00000030: f2f9 20bd bde2 91bc d1d7 3cbd 16ca 2bbd
00000040: 9c40 043d f7b2 eb3c e976 7fbd 3337 eb3c
00000050: db13 2fbc 1bc4 87bc 3890 d0bc 641c 033d
00000060: 9ccc d43c 77a4 053d 288b f73c 0b8e 35bd
00000070: 4159 ad3c a380 d5ba 83b9 23bd 8105 423d
00000080: bcc3 40bd 3843 33bd ab96 82bc 8d1c ceb9
00000090: 0c27 4cbd ef3a 0dbd d134 eb3c f287 adbb
000000a0: 2ba9 3bbd 5e2b de3c ae3f 103d 21ca 0a3c
000000b0: e805 2dbb ec21 6ebc f20c 173d 838d 98bc
000000c0: f916 a4bc 956c 393c b1a5 02b8 fbdb 3abd
000000d0: 0260 a13c bd62 55bd 96ae 283d 700c 95bb
000000e0: 7fe3 37bd b556 63bc 5659 e93c 5774 0e3c
000000f0: e8e8 003d 9ebe 37bd b3db 4d3b 8d9e ba3c
00000100: 5044 a3bc b2e3 903c 1367 d23b a3cc 31bd
00000110: 6ac6 4fbd 035f 5f3a 3476 fcbc 1e72 15bd
00000120: 5b42 35bd 4e63 25bb 7ba0 dcbb 550b f4bc
00000130: 29b4 cc3c 33eb 0fbd a2eb 94bc 971c 1b3d
00000140: 881c a93c cd75 d53c f194 423c 2911 01bd
00000150: 1f8f 243d f2ff 12bd 3d75 49bb fe31 e6bc
00000160: 6f05 c03c 138f 48bc d826 2f3d fe58 f5bc
00000170: 8b98 28bc f303 f9bc 27da aebb 043e de3c
00000180: 8d04 16bd 47b2 58bd 59c9 093d 6064 133d
00000190: ead2 6dbc 56d7 813c 2213 fbbb 995f ee3c
000001a0: 1bc6 383c 61d8 3cbd d051 8bbc 7fca 44bd
000001b0: e223 52bb 68b6 8c3a 4482 953c 26b1 8d3b
000001c0: 21fd 29bd 8ffe e43c 6444 b4bb 277e 2cbd
000001d0: 42f8 f7bb e1b4 993c 24d5 24bd 52f2 ab3c
000001e0: 637a 0d3d aea5 be3c 2a28 fb3c cffc a03c
000001f0: 71ae 2d3d 2844 b33c 5d0c 2b3d 84a4 ebbc
00000200: 732d 4a3d 1218 4d3d 5fd5 23bd 1c28 3cbd
00000210: a201 24bd 54f5 fc3c df1d 843c a285 1d3c
00000220: 456a 1dbd ca3b adbc cc00 183a caf6 66bc
00000230: 4e11 323d c5e1 36bd 89df cb3c 0c7e aebc
00000240: 165a 193d 6e2d 12bd f1f5 11bd 3da7 d0b7
00000250: 9b2f 3b3d 05c2 323c 4ac1 893c fb21 20bc
00000260: 5891 e2bb 024c 8f3c ba19 b2bc 1233 41bd
00000270: 7877 083c 4f5e 27bd 14e5 f63c 91c9 2cbd
00000280: f318 d2b9 120b e1bc ee73 09bc 568a fe39
00000290: ea76 06bd 3311 fa3c eaa3 31bc a947 843c
000002a0: 6ee4 a93c eb8b 47bd b241 8c3c d5a7 4bbd
000002b0: 1aa4 25bd a2f3 a83c 129b 51bd b3bf 4abd
000002c0: bd7a ad3c a26d 373d 68ab 963c f540 e63c
000002d0: 5a24 6f3c c3fb bcbb 0bc9 02bd e9ae 62bc
000002e0: 9b4e 38bc 890e b83c 5d8f a0bb b5f7 c03c
000002f0: 064c dcbb 61fb 23bd 14ce b6bb 56c5 763c
00000300: e573 53bd 2129 24bd 6d9f a03c e38f 99bc
00000310: 4174 143d 885a 22bd 4e26 28bd 7615 3bbd
00000320: 2a63 69bc 17dd 30bb 03e8 3ebc 11cf e53b
00000330: efde 26bd 8c54 813c 5e63 223b 2ad0 0ebc
00000340: 7041 2abd aa91 973c ed50 efbc 87f9 34bd
00000350: 02b7 da39 059a 5c3c a65b 17bd 5550 fcba
00000360: 4221 413b f720 a93c d7be 5a3b d42d 64bb
00000370: 7c60 803c f670 57bc c8c0 bd3b 2b70 5ebd
00000380: 8f33 0dbd 2286 4f3c e4a8 00bd 9781 143d
00000390: fd6b e3bc ad62 ee3a bc3a 033d 9e66 f0bc
000003a0: 524f 363d eb4b d53c 1342 163c 7e43 c73c
000003b0: 9357 08bc 0e92 553a dba8 f7bb 4556 1a3d
000003c0: baa8 13bd 5271 c93c d971 28bd 0db4 fa3c
000003d0: 18b4 cd3c e096 1abd 13cb 0abd a962 98bb
000003e0: d6c0 cf3c bc2e 09bd 60dd babb 0721 d2bc
000003f0: 5de5 5ebd 0fcc 733b 93ef 833c 1c08 51bd

fc_one.bias f4 [120]
0.047540322 0.008277823 -0.1128868 0.076051325 0.0029424955 0.02285241 0.074692875 0.0035455301
0.016484773 0.21174781 0.07062169 -0.061219618 -0.0044961963 -0.0080756275 -0.06538965 0.063790604
-0.019503739 0.11022501 0.10127243 0.2085548 0.13757852 -0.059254818 -0.0022718473 0.03995149
-0.03130962 -0.0463192 -0.06076554 -0.075877726 0.010504469 -0.030848151 0.08286675 0.012844616
0.07440729 0.22199778 0.09619582 -0.0038208454 -0.036983475 -0.19558088 0.039780334 -0.11792427
0.017015422 -0.047359977 0.14769123 0.017643606 -0.018672094 -0.041734498 0.0834974 0.05459415
0.011177265 0.08624792 0.020582316 0.07068476 -0.077336445 -0.025830617 0.20870607 -0.15847817
0.028546754 -0.029059488 0.039163046 -0.010551887 0.034740575 0.10560242 -0.11621218 0.025097521
0.13630041 -0.12282944 0.064143285 -0.13879052 0.07994282 0.093473285 -0.00801965 -0.08077645
0.021053433 -0.066922136 -0.05939591 -0.015241418 0.099819526 0.09942436 0.056928415 0.051250327
-0.016500205 0.0014775199 -0.01293673 -0.060411904 0.07569443 0.007668064 0.030022034 0.014177971
0.01198284 0.082422845 0.073322184 0.07430538 0.12744541 -0.02861699 0.018528262 -0.051010206
0.09227816 0.0762354 -0.1484044 0.23580983 -0.09360428 0.015184268 0.0005212957 0.03281682
0.06473967 0.004856045 0.028200269 0.10900921 -0.037963882 -0.11173898 0.058130316 -0.04295762
0.0058338367 -0.0879082 -0.004766812 0.026690003 -0.016618885 -0.021257697 0.1329867 0.005575362
00000000: a4b9 423d b59f 073c 3231 e7bd ccc0 9b3d
00000010: e2d6 403b fa34 bb3c 94f8 983d 205c 683b
00000020: 130b 873c 6bd4 583e 1ba2 903d 6cc1 7abd
00000030: d454 93bb a34f 04bc 02eb 85bd a6a4 823d
00000040: 4ec6 9fbc a6bd e13d eb67 cf3d 648f 553e
00000050: 62e1 0c3e 2eb5 72bd 46e3 14bb 2ca4 233d
00000060: 843e 00bd 34b9 3dbd 49e5 78bd c865 9bbd
00000070: f01a 2c3c 43b5 fcbc 0bb6 a93d 3972 523c
00000080: d962 983d 6353 633e 5002 c53d 2667 7abb
00000090: fc7b 17bd 5b46 48be b4f0 223d 4882 f1bd
000000a0: ed63 8b3c 89fc 41bd 5f3c 173e 5389 903c
000000b0: 38f6 98bc cbf1 2abd af00 ab3d 1e9e 5f3d
000000c0: d920 373c c0a2 b03d 3f9c a83c 2cc3 903d
000000d0: 9262 9ebd bb9a d3bc 0bb7 553e 1a48 22be
000000e0: e2da e93c 2a0e eebc 6e69 203d d2e1 2cbc
000000f0: 224c 0e3d 1546 d83d a700 eebd 5199 cd3c
00000100: 5692 0b3e 008e fbbd 8e5d 833d 1a1f 0ebe
00000110: 10b9 a33d ec6e bf3d da64 03bc 206e a5bd
00000120: 4078 ac3c 790e 89bd 2049 73bd 24b7 79bc
00000130: 2e6e cc3d 009f cb3d c52d 693d ddeb 513d
00000140: 702b 87bc 57a9 c13a 94f4 53bc 7972 77bd
00000150: ae05 9b3d 6244 fb3b c5f0 f53c b84a 683c
00000160: ac53 443c 4fcd a83d f129 963d 6b2d 983d
00000170: 0d81 023e 2e6e eabc 95c8 973c 14f0 50bd
00000180: 55fc bc3d 4e21 9c3d 53f7 17be 2278 713e
00000190: 9ab3 bfbd 70c7 783c 90a7 083a ee6a 063d
000001a0: 3b96 843d 751f 9f3b 4004 e73c 3840 df3d
000001b0: 0480 1bbd 68d7 e4bd 0e1a 6e3d 54f4 2fbd
000001c0: c529 bf3b 3709 b4bd eb32 9cbb fea4 da3c
000001d0: 5424 88bc 9f24 aebc aa2d 083e 87b1 b63b

fc_two.weight f4 [84, 120]
0.013657941 0.08764251 -0.14277549 -0.035217907 -0.029608667 0.04087012 -0.12890697 -0.08077029
-0.08619404 0.12658876 -0.016890446 -0.0924783 -0.0020698744 -0.03538331 -0.009106844 0.06909598
-0.036304295 0.10868147 -0.11937254 0.051570088 0.0032571729 0.0476349 -0.18200544 -0.011469645
0.11133258 -0.11986659 -0.016961167 0.1323411 0.048725136 0.054627627 0.09976229 -0.020170381
0.05260173 0.0029296426 0.040316325 -0.006122669 -0.04476648 0.06175384 0.025756968 0.0058244863
0.08433323 -0.08330294 -0.056885254 -0.108680055 -0.030382892 0.063411795 0.05107506 0.049553666
0.076783516 0.106104456 -0.07899134 0.018214943 0.01465966 -0.05179382 0.07936724 -0.07358433
0.05813541 0.06854979 -0.073353335 -0.11177487 -0.02300382 -0.06818844 -0.047874622 0.0124607
-0.047952723 -0.12698825 -0.02762651 0.025834588 -0.069314204 0.16598596 -0.004549994 -0.07402198
0.061374545 -0.07805877 0.09771103 -0.042137362 -0.14829138 0.0638863 -0.058487955 0.04973549
0.0542743 0.14553523 -0.027154922 -0.008907684 -0.11585545 0.0039024057 0.103721365 0.0172251
0.0065017967 0.00032867704 -0.07083694 -0.029653406 -0.028444787 0.08864789 -0.06500762 -0.038795426
0.005722633 0.016026841 -0.04244045 -0.011385155 0.023080204 -0.14360385 0.13022901 0.058500424
0.1450086 -0.025319705 0.077241585 0.06550962 0.058911517 0.008612642 -0.0023574308 0.02744791
-0.096495554 -0.1651763 -0.015558663 -0.0011009907 0.08713698 -0.06789123 -0.12157331 -0.032564405
-0.0069281915 0.0016179548 -0.04366057 -0.03325939 0.07851675 -0.0025293445 -0.023548624 0.031481117
-0.06323498 0.058513805 -0.023183944 -0.043903507 -0.007638847 0.05414857 0.01208625 -0.03988509
-0.04439961 0.015078443 0.05108185 0.019240618 -0.0047875764 0.073704794 -0.09569461 0.06374775
-0.025351 -0.018081682 -0.036463954 -0.047753315 -0.041728653 0.061455693 -0.035027508 0.07514462
-0.0909231 0.024440564 0.062556736 -0.06329333 0.0411159 -0.058242418 0.011085158 0.053703073
-0.07462144 0.06297476 -0.030348184 0.024134522 0.07481849 -0.038397264 -0.03546002 -0.051987775
0.009896217 -0.054400783 0.032095563 -0.0762508 0.037130963 -0.0026584093 -0.07604018 0.0073098093
0.044677656 -0.04352772 -0.09276902 0.08362501 0.08264209 -0.058037717 -0.053814754 -0.0113871815
-0.06591624 0.018303713 0.07933184 0.011683612 0.05942675 -0.07444416 0.01568015 0.008241377
-0.0319811 0.06469182 -0.054873955 -0.061922207 0.025489599 -0.072962806 -0.08215591 0.049049325
0.058951285 0.044083554 -0.08911677 0.018286018 0.054496013 -0.023242531 0.072060056 -0.06430366
-0.026035089 0.07838994 -0.06363136 -0.02855358 -0.068849064 -0.059735995 0.05793205 -0.027109561
0.04061984 -0.04404122 0.075817615 0.019704882 0.0055436664 -0.06547578 0.049150966 -0.05581882
0.089573935 0.014247106 -0.067906894 -0.09268016 -0.021414625 -0.07481408 0.048831142 -0.006651026
0.051651333 -0.030668719 -0.021723207 0.062168792 -0.09933752 0.017858682 0.029785465 -0.026682444
0.05385635 0.0791427 -0.058096245 0.097768016 -0.052664828 -0.09245011 -0.032534424 0.032027673
0.12776464 0.057924856 -0.0055410406 0.0155644305 0.042399574 -0.009513067 -0.11618678 -0.040857274
00000000: 8ec5 5f3c eb7d b33d bd33 12be a740 10bd
00000010: e08d f2bc 6d67 273d 3000 04be e56a a5bd
00000020: 8086 b0bd 7ca0 013e d55d 8abc 4365 bdbd
00000030: bba6 07bb 17ee 10bd df34 15bc 3182 8d3d
00000040: d0b3 14bd 6494 de3d 9779 f4bd 283b 533d
00000050: 4b76 553b d01c 433d a25f 3abe 2eeb 3bbc
00000060: 5602 e43d 9d7c f5bd 25f2 8abc 6d84 073e
00000070: 0294 473d 38c1 5f3d 2c50 cc3d 5b3c a5bc
00000080: e974 573d 3fff 3f3b bb22 253d aca0 c8bb
00000090: 0e5d 37bd 98f1 7c3d 4700 d33c 55db be3b
000000a0: e7b6 ac3d bb9a aabd 8300 69bd a693 debd
000000b0: 8be5 f8bc 0bde 813d 1534 513d c9f8 4a3d
000000c0: ad40 9d3d 4b4d d93d 36c6 a1bd 8137 953c
000000d0: 122f 703c c225 54bd 4b8b a23d 62b3 96bd
000000e0: 651f 6e3d d563 8c3d 463a 96bd 39ea e4bd
000000f0: 8272 bcbc 61a6 8bbd 2e18 44bd f727 4c3c
00000100: 136a 44bd 3509 02be fe50 e2bc 0fa3 d33c
00000110: 9bf4 8dbd 39f8 293e 1e18 95bb d698 97bd
00000120: e063 7b3d 47dd 9fbd b81c c83d 3a98 2cbd
00000130: b2d9 17be d2d6 823d 1191 6fbd 71b7 4b3d
00000140: ba4e 5e3d 3007 153e 0074 debc 89f1 11bc
00000150: 9f45 edbd 81bf 7f3b de6b d43d a71b 8d3c
00000160: 060d d53b 4952 ac39 f512 91bd b3eb f2bc
00000170: 0b05 e9bc 068d b53d b722 85bd f4e7 1ebd
00000180: ed84 bb3b b94a 833c 0ad6 2dbd cd88 3abc
00000190: b212 bd3c e30c 13be c15a 053e 249e 6f3d
000001a0: 227d 143e 456b cfbc d630 9e3d e829 863d
000001b0: 344d 713d 0a1c 0d3c 207f 1abb 70da e03c
000001c0: 769f c5bd fa23 29be c3e9 7ebc 1e4f 90ba
000001d0: df74 b23d 8f0a 8bbd 6dfb f8bd 4162 05bd
000001e0: e205 e3bb 8e11 d43a 6dd5 32bd 003b 08bd
000001f0: 64cd a03d 5cc3 25bb 0be9 c0bc 58f2 003d
00000200: 5781 81bd 2cac 6f3d 41ec bdbc 2ad4 33bd
00000210: 4b4f fabb e4ca 5d3d 6805 463c 8c5e 23bd
00000220: 5edc 35bd 930b 773c 343b 513d 809e 9d3c
00000230: 1ae1 9cbb 8af2 963d 89fb c3bd 2e8e 823d
00000240: e6ac cfbc 0920 94bc 3a5b 15bd fb98 43bd
00000250: aaeb 2abd f7b8 7b3d 0179 0fbd 6ce5 993d
00000260: e435 babd 9437 c83c bf1d 803d ef9f 81bd
00000270: 2569 283d 9a8f 6ebd 869e 353c c1f7 5b3d
00000280: 20d3 98bd e9f8 803d c19c f8bc c3b5 c53c
00000290: 703a 993d 7346 1dbd 873e 11bd 22f1 54bd
000002a0: be23 223c 5bd3 5ebd a376 033d 6129 9cbd
000002b0: a316 183d b538 2ebb f4ba 9bbd 2087 ef3b
000002c0: ebff 363d 1f4a 32bd affd bdbd 9743 ab3d
000002d0: 4240 a93d f5b8 6dbd dc6c 5cbd 4d91 3abc
000002e0: 18ff 86bd abf1 953c bb78 a23d 9f6c 3f3c
000002f0: 7769 733d 2e76 98bd a873 803c d706 073c
00000300: 9dfe 02bd 257d 843d 83c3 60bd 24a2 7dbd
00000310: 90cf d03c 866d 95bd 5c41 a8bd f2e7 483d
00000320: e776 713d f590 343d da82 b6bd 8fcc 953c
00000330: 3637 5f3d 1f67 bebc 3994 933d a3b1 83bd
00000340: 8a47 d5bc e88a a03d 2951 82bd 33e9 e9bc
00000350: bd00 8dbd bbad 74bd 284a 6d3d df14 debc
00000360: fd60 263d 9164 34bd 4446 9b3d 226c a13c
00000370: a5a7 b53b 2a18 86bd 8652 493d 46a2 64bd
00000380: 8a72 b73d b26c 693c c512 8bbd 19cf bdbd
00000390: b96d afbc 2038 99bd 2a03 483d daf0 d9bb
000003a0: 5990 533d f73c fbbc def4 b1bc b4a4 7e3d
000003b0: 7871 cbbd 5f4c 923c a600 f43c 2495 dabc
000003c0: 7a98 5c3d 9115 a23d 54f6 6dbd 993a c83d
000003d0: 13b7 57bd 7c56 bdbd d142 05bd 732f 033d
000003e0: bcd4 023e 9d42 6d3d 9e91 b5bb f401 7f3c
000003f0: 2dab 2d3d b2dc 1bbc 56f3 edbd f559 27bd

fc_two.bias f4 [84]
0.30737305 -0.0081718 -0.010873855 0.09383717 0.1883578 0.11834437 0.15293564 -0.054700736
0.042122032 0.26201606 0.09432445 -0.17800348 -0.099623546 -9.0289774e-05 0.050596282 -0.033933487
0.32691798 -0.06771043 0.06340582 0.20089889 -0.04466175 -0.049017947 0.13399333 0.0155859515
-0.026049133 -0.0840032 -0.082930125 0.024988595 0.010829223 -0.11260153 -0.03533741 -0.02945523
0.028612703 -0.087451644 -0.061511297 0.010690145 0.19044057 0.036259312 0.27880043 0.07800655
0.14292912 0.00080045534 0.20017801 0.05004947 -0.050678898 -0.003070717 -0.03205539 -0.0944888
0.26145485 0.3939828 0.14500907 -0.10186907 -0.19987024 -0.09107496 0.046618156 0.04177413
0.051022246 -0.11484819 0.09049873 0.13133116 -0.024175275 -0.07519416 -0.073444694 -0.06318951
-0.07414982 0.09418067 0.33074152 0.39301002 0.30049443 0.029171467 0.20462555 0.046952534
-0.07445923 0.11824711 -0.052601546 -0.021490522 0.020253446 -0.017064694 -0.017738622 -0.091789305
-0.08837727 0.30212122 0.26047602 -0.12976672
00000000: 0060 9d3e 03e3 05bc 4128 32bc b42d c03d
00000010: dee0 403e 885e f23d 299b 1c3e e10d 60bd
00000020: 2788 2c3d f826 863e 2d2d c13d 8b46 36be
00000030: 6e07 ccbd f459 bdb8 0c3e 4f3d d7fd 0abd
00000040: cb61 a73e c4ab 8abd e9da 813d 70b8 4d3e
00000050: 3def 36bd 0bc7 48bd 8c35 093e 385c 7f3c
00000060: fe64 d5bc df09 acbd 45d7 a9bd e2b4 cc3c
00000070: 0e6d 313c a29b e6bd f6bd 10bd 184c f1bc
00000080: 3065 ea3c d919 b3bd 45f3 7bbd b825 2f3c
00000090: da02 433e a584 143d eebe 8e3e e6c1 9f3d
000000a0: 035c 123e a6d5 513a 77fb 4c3e ac00 4d3d
000000b0: ad94 4fbd 153e 49bb 834c 03bd 5883 c1bd
000000c0: 69dd 853e 1db8 c93e 427d 143e bba0 d0bd
000000d0: c9aa 4cbe 8285 babd aef2 3e3d 5a1b 2b3d
000000e0: b4fc 503d 8735 ebbd 6657 b93d ad7b 063e
000000f0: 3a0b c6bc 65ff 99bd 2c6a 96bd 8069 81bd
00000100: dcdb 97bd cce1 c03d f456 a93e 9c38 c93e
00000110: 68da 993e 00f9 ee3c 5c89 513e 4d51 403d
00000120: 157e 98bd 8a2b f23d b874 57bd e40c b0bc
00000130: 8eea a53c 42cb 8bbc 9650 91bc 08fc bbbd
00000140: 24ff b4bd a2af 9a3e 1d5d 853e 91e1 04be

fc_three.weight f4 [10, 84]
-0.11387725 -0.019241111 0.057831436 0.061489612 0.32039565 -0.21457574 0.21580508 -0.07736754
-0.14384547 0.08946372 -0.11111204 0.1770165 -0.03622025 -0.0686139 -0.12939857 0.09324756
0.20399137 0.033851095 -0.13833122 -0.13948417 -0.015402559 0.01023894 0.10594808 0.09658559
-0.1031581 0.077481344 0.10631704 0.26193702 0.056847118 0.16023912 0.066324465 -0.07028809
-0.046563342 0.1990532 0.009367293 -0.031691547 -0.025719216 0.052038204 0.23232219 -0.028677933
-0.17104913 0.10371845 -0.1485266 -0.0070844376 -0.040889096 -0.15616082 -0.06620115 -0.03539376
0.062512815 0.03188074 -0.12191 0.15662174 0.08235113 0.046794914 0.15068388 0.3094031
0.13771375 0.18086627 0.1468614 0.07123668 0.14280282 -0.07505239 0.0567851 -0.10471371
-0.04060338 0.017075105 -0.0050320006 -0.3345127 -0.18328278 0.018919306 0.15217102 0.07076779
0.10685923 -0.17158747 0.15107433 0.087908104 0.049754597 0.11088002 0.054575775 -0.090716004
-0.046386372 -0.20906591 -0.3182253 0.1857623 -0.26101127 -0.091122225 -0.067653805 -0.15577792
0.26760682 0.119879395 -0.095032066 0.029414153 -0.0886674 0.07526804 -0.27004844 0.07657507
-0.043633368 -0.10046773 -0.28669375 -0.028497767 -0.3766234 -0.10714704 0.0043826425 -0.071228154
0.09024972 -0.030485956 -0.018138437 0.09792062 0.3013783 -0.040645164 -0.057199445 -0.027257545
-0.003226012 -0.18193439 0.1650813 -0.042675953 0.096780345 0.046280734 -0.14150962 -0.0063450215
0.26127657 0.0038731208 -0.06929576 0.07204132 -0.17570032 -0.025268374 -0.09908054 0.0039913827
-0.08808231 0.27072492 0.03331478 -0.0011660648 -0.19438899 -0.100206874 -0.06227348 0.1300414
0.40988308 -0.09605141 0.10712863 0.1960728 0.17312135 0.28123635 -0.024066765 -0.15264352
0.0067064674 -0.0894623 -0.15760504 0.11163303 0.32108104 0.011633697 -0.03074004 -0.29543683
-0.12607989 0.057263225 -0.037959646 0.10387928 0.16004242 0.07124526 -0.08564042 -0.13398942
0.08549477 0.034992363 0.21006845 -0.065516874 0.032582868 -0.100007586 0.01278562 0.1636643
0.15475515 -0.02281297 0.36928856 -0.14419942 -0.1937747 0.024076823 0.08556344 0.006948444
-0.10056723 0.19895074 0.052036505 -0.15122552 0.08557127 0.10446836 0.07687442 0.2238014
0.26072773 0.08829611 -0.05735543 0.12713546 -0.062384155 0.026310684 0.1831955 -0.088770755
0.0427323 -0.03126812 -0.024743112 0.03192864 -0.09031771 0.16100907 -0.1399127 -0.016328098
-0.037256237 0.18940051 0.12887612 -0.15218896 -0.22973025 0.013193202 0.08432859 -0.14491817
-0.037035085 -0.031587783 0.07999696 0.07618586 0.0017081514 -0.019059798 0.07454728 0.091274776
-0.062440783 0.08224802 -0.06941001 0.0036211459 -0.054051273 0.09057067 0.20784043 0.008031775
-0.20239405 -0.10643659 0.10746693 -0.1798124 0.1389532 -0.11824418 0.15485719 0.13498089
0.045084976 0.099727534 -0.090775676 0.109858185 0.290928 0.084121145 -0.036237285 -0.17104457
-0.03231559 0.12214895 -0.13927108 0.05156441 -0.04482934 0.03415688 -0.17680417 0.08101872
0.070289165 0.057841267 0.026314432 0.0546257 0.035545923 0.020849988 0.0797233 0.26179546
00000000: 7a38 e9bd 899f 9dbc a8e0 6c3d 88dc 7b3d
00000010: e60a a43e beb9 5bbe 02fc 5c3e df72 9ebd
00000020: 3a4c 13be c138 b73d b68e e3bd d043 353e
00000030: af5b 14bd 7285 8cbd 0f81 04be 94f8 be3d
00000040: 1de3 503e 72a7 0a3d b3a6 0dbe f0d4 0ebe
00000050: 045b 7cbc 3ac1 273c 4ffb d83d aace c53d
00000060: 8e44 d3bd 8aae 9e3d c0bc d93d 9c1c 863e
00000070: 86d8 683d b915 243e 1fd5 873d 34f3 8fbd
00000080: 34b9 3ebd 9ad4 4b3e 4679 193c ffce 01bd
00000090: 1bb1 d2bc 0326 553d dee5 6d3e fced eabc
000000a0: 8127 2fbe 576a d43d 5b17 18be 9224 e8bb
000000b0: 537b 27bd 9fe8 1fbe 7894 87bd 0cf9 10bd
000000c0: b806 803d 6195 023d f3ab f9bd 7361 203e
000000d0: b6a7 a83d 06ac 3f3d e04c 1a3e 156a 9e3e
000000e0: d504 0d3e 0235 393e d662 163e 89e4 913d
000000f0: e73a 123e 11b5 99bd 7e97 683d 2474 d6bd
00000100: bb4f 26bd 17e1 8b3c 7be3 a4bb 4045 abbe
00000110: 7bae 3bbe a9fc 9a3c b8d2 1b3e b4ee 903d
00000120: 03d9 da3d a0b4 2fbe 3bb3 1a3e 2a09 b43d
00000130: 7acb 4b3d 1015 e33d d98a 5f3d 50c9 b9bd
00000140: a3ff 3dbd 6015 56be 6dee a2be 7938 3e3e
00000150: 45a3 85be 4a9e babd 148e 8abd 3f84 1fbe
00000160: c303 893e 5483 f53d 2ca0 c2bd f3f5 f03c
00000170: 4197 b5bd 2126 9a3d ca43 8abe 64d3 9c3d
00000180: e7b8 32bd 06c2 cdbd 86c9 92be 2674 e9bc
00000190: c8d4 c0be e86f dbbd 459c 8f3b 11e0 91bd
000001a0: d8d4 b83d afbd f9bc 0f97 94bc 9b8a c83d
000001b0: 424e 9a3e 8b7b 26bd f749 6abd 374b dfbc
000001c0: 806b 53bb 024d 3abe 130b 293e fbcc 2ebd
000001d0: c634 c63d de90 3d3d e6e7 10be e6e9 cfbb
000001e0: 0bc6 853e 2fd4 7d3b efea 8dbd 668a 933d
000001f0: c9ea 33be 9fff cebc bdea cabd 25ca 823b
00000200: 8064 b4bd 759c 8a3e 1475 083d a4d6 98ba
00000210: e80d 47be 4339 cdbd 7a12 7fbd 9329 053e
00000220: 32dc d13e 9ab6 c4bd 4166 db3d 4fc7 483e
00000230: b946 313e 36fe 8f3e aa27 c5bc 954e 1cbe
00000240: edc1 db3b 0338 b7bd 3763 21be dc9f e43d
00000250: bc64 a43e 439b 3e3c 89d2 fbbc 7f43 97be
00000260: 161b 01be d88c 6a3d 937b 1bbd a9be d43d
00000270: 29e2 233e 09e9 913d 3f64 afbd 8634 09be
00000280: e217 af3d 2754 0f3d 2f1c 573e b62d 86bd
00000290: 9d75 053d c7d0 ccbd c77a 513c 9d97 273e
000002a0: 2278 1e3e 44e2 babc 6413 bd3e 03a9 13be
000002b0: e06c 46be c23c c53c e33b af3d c6af e33b
000002c0: 31f6 cdbd beb9 4b3e 3b24 553d ddda 1abe
000002d0: fd3f af3d 82f3 d53d 5670 9d3d 322c 653e
000002e0: 1b7e 853e 97d4 b43d 87ed 6abd cc2f 023e
000002f0: 8786 7fbd 8189 d73c 9a97 3b3e 71cd b5bd
00000300: 1008 2f3d 0013 00bd 11b2 cabc 9bc7 023d
00000310: 7ef8 b8bd 90df 243e 4645 0fbe 81c2 85bc
00000320: ff99 18bd 35f2 413e 1af8 033e 6cd7 1bbe
00000330: 683e 6bbe 4d28 583c 78b4 ac3d 6e65 14be
00000340: 1ab2 17bd 3162 01bd 72d5 a33d 5507 9c3d
00000350: 0de4 df3a 4b23 9cbc 3fac 983d 45ee ba3d
00000360: e8c1 7fbd a671 a83d d626 8ebd bf50 6d3b
00000370: de64 5dbd 1e7d b93d 1fd4 543e b597 033c
00000380: 6340 4fbe 6dfb d9bd 9f17 dc3d be20 38be
00000390: bf49 0e3e 012a f2bd e292 1e3e 6e38 0a3e
000003a0: 06ab 383d f33d cc3d 99e8 b9bd 54fd e03d
000003b0: 84f4 943e b547 ac3d 8c6d 14bd 4f26 2fbe
000003c0: 5a5d 04bd 3b29 fa3d 149d 0ebe 3435 533d
000003d0: f89e 37bd 16e8 0b3d 270c 35be 25ed a53d
000003e0: c4f3 8f3d f7ea 6c3d 5d91 d73c 33bf 5f3d
000003f0: 9a98 113d 98cd aa3c f845 a33d 0e0a 863e

fc_three.bias f4 [10]
-0.21358342 -0.55511093 0.087030806 0.16440211 0.38709512 -0.086444326 0.3082551 -0.33553734
0.4316437 -0.3574641
00000000: 9db5 5abe c01b 0ebf 353d b23d 0759 283e
00000010: 5531 c63e b909 b1bd 9dd3 9d3e 8dcb abbe
00000020: 6700 dd3e 8905 b7be
